DSLL/lpm_model_v1.pth (torch, 70255 bytes, 7 tensors)

Fc1.0.weight f4 [128, 100]
000000 9c 2d b3 bb da a4 79 bd 99 6c d2 bc be 9b 69 bd
       -0.0054680835 -0.06094823 -0.025686549 -0.057033293
000010 78 af d6 bd d3 02 97 3d a3 d0 67 3d fe 7e c8 3d
       -0.10482687 0.073735856 0.056595456 0.09789847
000020 fb 73 a6 3d 7d 3c be bc 36 8d ad bd e4 86 33 bd
       0.0812759 -0.023222202 -0.084741995 -0.043829814
000030 2c db 75 3d 60 2f 20 bc f5 55 38 bd 62 17 b0 3c
       0.06002347 -0.00977692 -0.04500385 0.021495525
000040 50 d5 f6 bd 26 4d 8e bc f7 f9 96 bd 77 f0 d4 3d
       -0.12052405 -0.017370772 -0.07371896 0.103974275
000050 0c cc 0f 3d 51 0d 07 3d 99 d7 87 bc 4a 72 d1 bd
       0.035106704 0.032971684 -0.016582297 -0.10226877
000060 99 43 cb bd 44 bf b0 3d 43 12 f1 bd 24 c9 ed bc
       -0.099250026 0.08630231 -0.11771061 -0.029026575
000070 a2 78 d2 3d 20 b4 5e bd af a2 b8 bc da cf 1c 3d
       0.10276915 -0.054371 -0.022538511 0.03828416
000080 97 22 c4 bb a0 6b 5c 3d 28 81 aa 3d 12 42 37 3d
       -0.0059855687 0.053813577 0.08325416 0.044740744
000090 12 2d a2 bd 07 68 a1 bd 2e 32 9a bd 88 fb 97 3d
       -0.07918753 -0.0788117 -0.07529102 0.07421023
0000a0 6d 67 81 3d 84 cb e4 3d a5 01 7c bc 34 a6 d1 bd
       0.06318555 0.1117163 -0.015381251 -0.10236779
0000b0 8a 7b b2 3d 19 06 a9 bd 5c b2 e0 bb 24 b5 1c bd
       0.087149695 -0.08253116 -0.0068571996 -0.038258687
0000c0 12 4b 3d bc b8 7b 1e 3d 9a 87 bd bd e2 c2 e1 bd
       -0.011553543 0.038692206 -0.092543796 -0.11023499
0000d0 bc 4e 99 bc d2 bf 64 3d 51 cb 29 3d f4 ed bc 3d
       -0.018714301 0.055846997 0.041453663 0.092250735
0000e0 7e 1f cb bd f4 75 5c bd 03 4b 55 bd f5 8d 81 3d
       -0.09918116 -0.053823426 -0.05207349 0.06325904
0000f0 17 0b 4b bd 47 e2 1b bd cd c6 9a bc 97 0b b7 3d
       -0.049571123 -0.03805759 -0.018893624 0.089377575
000100 09 4f de 3c e8 f3 07 bd 59 0b b2 3d c2 59 0f 3d
       0.027137296 -0.03319159 0.08693571 0.03499771
000110 46 66 89 bd d1 56 b6 bc de f6 9f 3c 5a e4 dd 3c
       -0.0670896 -0.022258194 0.019526895 0.027086426
000120 e4 a2 d4 bd 67 f3 e8 bc 1f cf c2 bc d0 80 25 3d
       -0.103826314 -0.028436376 -0.023780404 0.04040605
000130 02 a9 56 bd c2 22 77 bd c5 c1 3b 3d d2 6d 84 bd
       -0.052407272 -0.060335882 0.04583909 -0.06466259
000140 df 2d d6 3d d7 a2 0a bd 4c 99 ca 3b c7 7b cc bd
       0.10457968 -0.033846702 0.006182825 -0.09984546
000150 30 1e 21 3d b1 0f 49 3d a3 4e c8 bd d4 48 a4 bd
       0.03933543 0.04908723 -0.09780624 -0.08021703
000160 10 47 89 bd fb ce e6 3d ce 79 94 bd 26 f7 a0 3d
       -0.06703007 0.11269947 -0.07249795 0.0785964
000170 35 0a b3 3b 45 ed eb 3c 81 a3 93 bd 85 15 cc bd
       0.0054638633 0.028799662 -0.0720892 -0.09965042
000180 84 02 37 3c 9f 85 7d 3c 8e ff 3c bc 74 a0 85 3d
       0.011170033 0.015473752 -0.011535538 0.06524745
000190 e4 51 9e bd 37 e5 8b 3c a8 ce 24 3d 07 ab 14 bd
       -0.07730463 0.017077072 0.040236145 -0.036295917
0001a0 18 d3 d2 bd 0f f7 9d 3d 5e 0e d5 3d 93 63 5f bd
       -0.10294169 0.07713138 0.10403131 -0.05453832
0001b0 a4 97 8c 3d b0 1a 48 bd 1f 93 6e 3d 05 58 a6 3d
       0.06864861 -0.048853576 0.058245774 0.08122257
0001c0 05 3a 14 3d 49 90 c7 3d b9 01 7f bd 17 f2 00 bd
       0.036188144 0.09744317 -0.062257502 -0.031480875
0001d0 f2 5d b8 bc bd 13 a6 bd 00 79 2f 3d d9 ff 1c bd
       -0.022505734 -0.081092335 0.042840004 -0.038329933
0001e0 2c ec 0f bd c8 39 1f 3c a5 06 c0 bd 84 28 41 bc
       -0.03513734 0.009718366 -0.09376267 -0.011789445
0001f0 e4 d7 56 bd 70 22 06 3d 59 29 00 bd 89 76 99 3c
       -0.052451983 0.032747686 -0.031289432 0.01873328
000200 90 8f c9 3d 3a 1a 60 bd f0 3d 79 bd 3c 99 18 bd
       0.098418355 -0.05471251 -0.060850084 -0.03725551
000210 72 67 b7 bd be 65 65 3d 6a a4 5a 3d 7a 0d 9a bc
       -0.089552775 0.056005232 0.053379454 -0.018805254
000220 ed 50 4e bd 95 71 ae 3d 01 ef 84 bc e9 2f c0 bd
       -0.050370146 0.08517758 -0.016227247 -0.09384138
000230 76 59 b0 bd d5 86 3e 3b a5 ac a9 3d 34 03 90 3d
       -0.08610813 0.0029072065 0.082848825 0.07031861
000240 95 50 88 bd 7e 80 d1 3b f7 13 b4 3d a0 4e a2 bd
       -0.06655995 0.0063934913 0.087928705 -0.07925153
000250 9f f6 b1 bd e2 b6 50 bd fe 2e e9 bc 72 c6 26 bd
       -0.08689617 -0.05095566 -0.02846479 -0.040716596
000260 c1 6a 36 3d f0 ab 98 3c d1 c3 6a ba b9 7b 94 bd
       0.044535402 0.018636674 -0.00089555705 -0.07250161
000270 b2 49 5d bd 4a 6e 97 3c a8 1c cd bd 70 25 ac bc
       -0.05402536 0.018485207 -0.10015231 -0.021013945
000280 7a 65 df bc 3f cd aa 3d 9d b9 42 3c a3 53 9d 3d
       -0.027270067 0.08339929 0.011885074 0.07681968
000290 6f c5 eb bc e0 f9 d4 3d 62 d9 67 3b b9 a8 87 3d
       -0.028780667 0.103992224 0.0035377373 0.06623978
0002a0 a0 54 8c bd f6 76 31 3d 47 9c be bb 21 40 c1 bd
       -0.068520784 0.04332634 -0.0058169696 -0.0943606
0002b0 c6 56 df bd 27 b7 3b bd af 7d 83 bd f2 f8 2d bc
       -0.109052226 -0.045828965 -0.064204566 -0.010618435
0002c0 1b 27 24 bd 22 89 bd bd a5 56 08 bd c6 99 6a 3d
       -0.040076356 -0.09254672 -0.033285756 0.057275556
0002d0 7c 3e 59 bb fc 10 b4 3c 1e 51 fd 3c c3 7d 2a bc
       -0.0033148816 0.021980755 0.030922469 -0.0104059605
0002e0 b3 6c ac 3d ce 4b 6d 3c 9c 0f c2 3d fe e3 33 bd
       0.0841917 0.014483405 0.094756335 -0.043918602
0002f0 3a c1 13 3d 34 40 82 bd f4 30 49 bd 50 4b a1 bc
       0.036072947 -0.06359902 -0.04911895 -0.019689232
000300 9c 29 cf 3d ee 9a 74 bd 79 5b b2 3c 11 82 8f 3d
       0.10115358 -0.059718065 0.021772133 0.0700723
000310 20 73 85 bd 16 a8 1b bd 9f 9a 24 bd b0 1a e4 bd
       -0.06516099 -0.038002096 -0.04018652 -0.11137903
000320 70 c6 39 bd b3 2e 2d 3d 07 94 13 bd 7f 13 b9 3d
       -0.04535526 0.042280864 -0.03602984 0.09036922
000330 32 8f 8b bd 09 67 6a bd 5a 16 8a 3c ee 57 ad bd
       -0.06814422 -0.05722717 0.016856361 -0.08464037
000340 c7 06 99 bb d1 05 97 bd 1e 93 14 bd 9f 30 94 3d
       -0.0046699974 -0.07374156 -0.036273114 0.07235836
000350 aa e2 f6 3c da 3d a3 bc fc 2f 03 3d c1 d4 96 3b
       0.030137379 -0.019926954 0.032028183 0.004602999
000360 0f 4e 2a bd 54 c8 b1 3c e7 f4 49 3c ef b0 fa 3d
       -0.04157835 0.02170197 0.012326456 0.12240779
000370 3b c9 a0 bd 48 66 a5 bd e0 89 2a 3d b6 c3 9d 3d
       -0.07850882 -0.08076149 0.041635394 0.077033445
000380 66 ce 92 3d a8 e9 17 3d 81 8d fa bc 42 39 71 3d
       0.07168274 0.037088066 -0.030585052 0.058892496
000390 5b 19 85 3d bd 5e de 3d 32 98 74 3d 03 bf 79 3d
       0.06498977 0.10857914 0.059715457 0.06097318
0003a0 cf 98 68 bd 57 fb 92 bd 74 fb a8 3d ab 40 86 bc
       -0.056786355 -0.071768455 0.08251086 -0.016388258
0003b0 7c c2 be bc 49 9c 8f bc 80 fd 41 bd 8b de f8 3c
       -0.023286097 -0.017530577 -0.047360897 0.030379554
0003c0 e0 7b ba bc 0d 55 82 3d 45 0d 9b bd 8e 0b 7a bd
       -0.022764146 0.063638784 -0.0757089 -0.061046176
0003d0 13 89 79 bd 0f 6e 0e 3d 72 e8 87 3d b2 b8 49 3d
       -0.06092174 0.03477293 0.06636132 0.049248405
0003e0 1e 26 31 bc 89 15 c7 3d dd db d5 bc b0 89 67 3c
       -0.0108123105 0.097209044 -0.026105816 0.014131948
0003f0 7a 23 85 3d 4b 5b 1b bd b8 2a eb bc d7 4e 19 bd
       0.06500907 -0.03792886 -0.028706893 -0.037428703

Fc1.0.bias f4 [128]
000000 84 36 75 bd 03 77 8b 3d 0b 94 0a 3d c5 bd 9a bd
       -0.059866443 0.06809809 0.03383259 -0.07555727
000010 d0 db 9b bd 69 37 ea bc f7 e3 8f 3d 29 46 b3 3d
       -0.07610285 -0.028590875 0.07025903 0.08753616
000020 96 fe 3e 3d f3 83 10 bc a8 0c 93 bd 7a e7 6c bd
       0.04662951 -0.008820522 -0.07180148 -0.05783794
000030 fe d5 8b 3d b7 5f 9c bd c9 93 3e 3b 21 a0 cd 3d
       0.06827925 -0.07635444 0.0029079786 0.10040308
000040 27 a6 d5 3c 48 bd b5 bc 57 d0 9b 3d ac 84 60 bd
       0.026080204 -0.022184983 0.07608097 -0.054814026
000050 5c ad a9 bc b1 8d be bc 3d 6c 86 3c 5c 04 7f 3d
       -0.020712547 -0.023260923 0.016409034 0.062260017
000060 79 3d 99 bd cd 19 4f bd 8e f8 92 3d 60 ff 44 bd
       -0.07482428 -0.050561715 0.07176314 -0.048095107
000070 5c 78 01 bc 18 b2 a1 3d 29 1b a7 bd 05 74 8f 3d
       -0.007902231 0.07895297 -0.08159477 0.07004551
000080 61 33 be 3d 52 da c8 3b 8b b5 23 3d e2 e2 65 3d
       0.092871435 0.0061295414 0.039968055 0.056124575
000090 4d 98 db 3d 16 d7 5b 3d 25 09 b3 bd 9d 06 6f bd
       0.107224084 0.05367192 -0.087419786 -0.058355916
0000a0 09 6e b9 3c 67 e8 1f 3d 40 8a b9 3d ef 12 b4 bc
       0.022635477 0.039039996 0.09059572 -0.021981684
0000b0 de 4e 0e 3d 86 de 52 bd e9 cf a5 bb 45 0b 95 3d
       0.034743182 -0.051481746 -0.005060185 0.0727754
0000c0 8b b7 75 bd 06 f6 ba 3d 63 80 f7 bc a8 b2 b2 bc
       -0.059989493 0.091289565 -0.030212587 -0.021813706
0000d0 1c f9 5e 3a 49 46 5c 3d e2 a8 b1 3d 6d 54 e7 bc
       0.0008505748 0.053777967 0.0867479 -0.0282385
0000e0 14 a0 26 3d 05 38 a1 bd cc 8b 73 3c 30 db a1 3d
       0.040680006 -0.07872013 0.014864873 0.07903135
0000f0 fa 66 14 3d 3b 57 e5 3c 32 e0 f9 3c 31 0a 12 bd
       0.03623102 0.027995696 0.030502412 -0.03565425
000100 6a 00 0e bd d8 b5 37 3d 52 6e ad 3d f8 7b 85 bd
       -0.034668364 0.044851154 0.084683076 -0.06517786
000110 79 b8 89 bd d9 07 1f bc 6a 52 b9 bb 3b 28 35 bd
       -0.067246385 -0.009706461 -0.0056555765 -0.04422782
000120 e6 68 b6 3d 05 9d 51 3d 6c 30 64 bd 20 e4 cd 3d
       0.089067265 0.051175136 -0.05571024 0.10053277
000130 c1 44 37 3b 3a cc cb bc 7b 66 ae 3c 36 7b 1a bc
       0.0027964565 -0.024877656 0.0212891 -0.00942879
000140 e7 a9 88 bc 7b b0 99 bc f3 e4 76 bc 91 c9 66 3d
       -0.016682578 -0.01876091 -0.015069234 0.056344572
000150 9d 84 0a bd f4 d5 ce 3c 63 ed 86 3d 83 ec a8 bd
       -0.033817876 0.025248505 0.06588247 -0.08248236
000160 a9 c0 9f 3d 6d 70 89 bd 8d 6a 94 3d ac 52 13 3d
       0.07800419 -0.06710897 0.072468854 0.035967514
000170 30 9a 05 bc f5 b0 2f bb 7a e1 9d 3b c0 31 9f 3b
       -0.008154437 -0.0026808355 0.0048181387 0.0048582256
000180 52 13 1e bd 6d 6f 80 3d 06 32 20 3d 88 39 9f bd
       -0.038592644 0.06271253 0.039110206 -0.07774645
000190 e2 48 01 bd 9e 51 9c 3d fc 35 8b bd f9 30 af 3d
       -0.031563647 0.07632755 -0.06797406 0.08554263
0001a0 6c 86 2b bd b8 65 12 bd 06 cc 7b 3d 0f 55 90 3c
       -0.04187624 -0.035741538 0.06147387 0.017618684
0001b0 4e cb d3 bd 6e e0 86 3d b6 4c 4b 3d 3b 19 04 3d
       -0.10341512 0.06585775 0.049633704 0.032250624
0001c0 9e a3 b1 bd 51 c2 87 3d de ad 9a bc d6 42 81 bc
       -0.086737856 0.0662886 -0.018881734 -0.01577894
0001d0 61 6b 22 bd ec 5b 5b 3c 61 45 9f bc 7a 33 cc 3d
       -0.039653186 0.013388615 -0.019442262 0.09970756
0001e0 b7 4e 4a bd 2d 26 08 bd ea f1 29 bc af 9b 93 3c
       -0.049391475 -0.033239532 -0.010372618 0.018018572
0001f0 b3 38 5c bc 2c f8 10 3d a6 98 12 bd 3c 25 fd bb
       -0.0134412525 0.035392925 -0.03579011 -0.007725386

Fc2.0.weight f4 [128, 20]
000000 ef f5 9a 3d 5b e1 7c bd 6c be d3 bd bf 9a 91 3d
       0.07566439 -0.061738353 -0.103390545 0.071095936
000010 2f a5 28 be da cf 11 3e ba 90 e9 3c 6b 62 4b bc
       -0.16469263 0.14239445 0.028511394 -0.012413601
000020 27 61 07 3e b3 16 1f 3e 17 42 0b 3b fc 7f a5 3d
       0.13220654 0.15536003 0.002124911 0.08081052
000030 2b ed 4c bb c2 99 13 3e 1d 38 53 be 73 10 16 3d
       -0.0031269293 0.14414123 -0.20626874 0.03663678
000040 9f 62 40 be a5 ad ae bd 85 15 85 3b e3 f1 68 be
       -0.18787621 -0.08529214 0.004061403 -0.22748522
000050 6d 83 fb 3c 0c 95 d4 bd 2e dc 38 be 7a 8d 58 be
       0.030702317 -0.10379991 -0.18052742 -0.21147719
000060 f6 64 02 bb 99 c9 8a bc 73 ee 8f bd b7 26 ac 3d
       -0.0019896603 -0.016941832 -0.070279025 0.08405822
000070 99 b8 b4 bd fd 19 58 be ca 9c 2b 3d 95 d2 65 3c
       -0.08824272 -0.21103664 0.041897573 0.014027257
000080 02 9a 07 be 71 55 3f bb a6 99 9c 3d 01 12 d7 bd
       -0.13242343 -0.0029195214 0.076464936 -0.10501481
000090 19 28 68 3e ce 87 09 3c 44 cf 05 3e 37 2c dc bd
       0.22671546 0.008394195 0.13067347 -0.10750621
0000a0 d7 2a 37 3e 4e 61 90 bc a7 04 07 be b8 ab 64 3e
       0.17887436 -0.017624523 -0.13185368 0.2233113
0000b0 02 59 b6 3d 2f 49 c0 3c 9c f1 29 3d b4 35 12 3c
       0.08903696 0.023472397 0.041490182 0.008923937
0000c0 b6 42 2c 3e b9 3a 59 3d df d4 c2 bc 0b 29 90 3d
       0.16822323 0.053034518 -0.023783145 0.07039078
0000d0 15 e7 d7 bd 84 af 71 3d d9 50 49 3e 49 b4 02 3e
       -0.10542122 0.059005275 0.19659747 0.12764086
0000e0 1d 86 a2 3c 8c da 95 bd 1d 5e 40 be f8 6d 44 3e
       0.01983934 -0.07317075 -0.18785901 0.19182575
0000f0 70 23 42 be 54 4d d1 bd d1 73 3b 3d a9 cf 09 be
       -0.18958831 -0.10219827 0.045764748 -0.13458122
000100 de 18 6f bd 6b de 35 3e 9e ab 7c 3d f5 cb 1e 3e
       -0.058373325 0.17760627 0.061687104 0.15507491
000110 0a 84 28 be 48 3a 53 bd 50 02 04 3e 96 38 0d be
       -0.16456619 -0.051569253 0.12891507 -0.13791117
000120 9d 90 66 be 86 c7 d7 3d 2f 4a d0 bd 57 a3 53 be
       -0.22516103 0.10536103 -0.101703994 -0.20667778
000130 7c 96 9d 3c 4e 76 37 be 08 be 0c 3e 64 68 14 be
       0.019236796 -0.17916223 0.13744366 -0.14492947
000140 f5 21 9d bd 19 fc 17 3d 2c 6a 0c be 02 dd 2c 3e
       -0.076724924 0.037105653 -0.13712376 0.16881183
000150 d1 86 54 3e 3c d5 30 be 16 5a 87 3d 3d da 65 3e
       0.20754553 -0.17268842 0.066089794 0.22446533
000160 9c 9e 64 be c0 70 d3 bb d5 c7 b4 3d 9b 70 09 3e
       -0.2232613 -0.00645265 0.088271774 0.13421862
000170 e6 4c ec bd 59 87 e3 bd 51 a7 cb 3d e4 af 0b bd
       -0.11538105 -0.111098 0.099440224 -0.03410329
000180 c0 01 b5 3d 00 82 57 3e d1 e6 4c 3e 98 fe e5 3c
       0.088382244 0.21045685 0.20009924 0.028075501
000190 5e 40 41 be 7f b0 15 be a0 b3 6c 3c 82 82 63 bd
       -0.1887221 -0.14618109 0.014447123 -0.055544384
0001a0 60 b8 d7 bd 2b be 3b 3d ef 52 cf bd e3 1e 52 be
       -0.105332136 0.045835655 -0.1012324 -0.20519595
0001b0 38 37 19 3e a6 1a d7 bb e2 8a 00 3e 59 be 0e bc
       0.1496247 -0.006564456 0.1255298 -0.008712375
0001c0 b0 5f 2d 3e 12 9a ed bd 14 21 b3 bd 95 3f 60 bd
       0.16931033 -0.11601652 -0.087465435 -0.054748137
0001d0 cd 74 70 be e4 8c 85 bd 37 81 f3 bd 64 2b 12 3e
       -0.23482056 -0.065210134 -0.1188988 0.14274365
0001e0 de 54 2f be 9c df 24 bd a3 26 d3 bd c0 8d e7 3d
       -0.17122218 -0.040252313 -0.10310104 0.113063335
0001f0 a6 1a 9d 3d 39 50 5c bd 98 42 20 be f2 4c 57 3e
       0.076710984 -0.053787444 -0.15650403 0.21025446
000200 44 af 5b be 4f 38 da 3d 68 d1 ff bd 60 67 48 3e
       -0.21453577 0.10655271 -0.12491113 0.19570684
000210 87 e1 49 3e 8d 16 74 3d f8 23 e5 3d ee 10 78 bd
       0.19714938 0.05959182 0.11188501 -0.06056302
000220 6e 6f bf 3d cc 35 2b 3d fd 47 60 3d 2f a1 de 3d
       0.093474254 0.04179935 0.054756153 0.10870587
000230 a2 c2 21 3e 5d cf 47 be 2a 00 54 3e e9 e5 44 be
       0.15796903 -0.19512697 0.20703188 -0.19228329
000240 8f ba 13 3e 4e 05 4c be 9e 19 fe bd e3 84 57 be
       0.14426635 -0.19923899 -0.1240723 -0.21046786
000250 41 97 4a bd 06 71 e9 bd b5 f7 43 be 2e 15 09 be
       -0.049460653 -0.11398511 -0.19137461 -0.13386986
000260 00 0e b8 3c b5 d1 33 be 76 34 a6 3d 5b d9 40 3e
       0.022467613 -0.17560466 0.08115475 0.18832915
000270 11 89 5a 3e 6e cb 53 be 19 f9 00 3e 89 5c 9e bd
       0.21341349 -0.20683071 0.12595023 -0.077324934
000280 f2 e4 49 bd 66 c4 3e 3e 35 21 1f bd 6f 09 d6 bc
       -0.049290605 0.18629608 -0.038850028 -0.026127545
000290 37 6d 9a 3d 5d 20 23 3e 25 e0 40 be 77 ae 1f be
       0.07540362 0.15930314 -0.18835504 -0.15593897
0002a0 5b df 26 3d 14 84 f5 3d ec 29 97 3d a1 46 13 be
       0.040740352 0.119880825 0.07381043 -0.14382412
0002b0 31 7e be bc 9b f2 c0 3d 6c 92 15 3e b3 98 d6 bd
       -0.023253532 0.09421273 0.14606637 -0.10478344
0002c0 a8 43 3e be 09 ee 39 bb 3b ab 99 bd 66 7b 84 3d
       -0.18580496 -0.002837064 -0.07503363 0.06468849
0002d0 f3 dd 0f 3e bc 6d 5b be 53 f2 dd 3a b9 e9 90 3d
       0.1404951 -0.21428579 0.001693318 0.07075829
0002e0 10 b9 10 be b5 be 43 3e a9 ff 7d 3d 51 5b 56 3e
       -0.14133096 0.19115718 0.062011395 0.20933272
0002f0 38 93 48 be 17 97 50 be c9 7e 4b be 70 be 52 3e
       -0.1958741 -0.20370136 -0.19872583 0.20580459
000300 b6 79 5c 3d d2 6f 5d 3e ee 5b 1f bd 33 f9 52 bd
       0.05382701 0.21624687 -0.03890603 -0.051507186
000310 63 11 1b bc 0a 61 f7 bd 06 83 10 be 13 4b 0d be
       -0.009464595 -0.120790556 -0.14112481 -0.1379817
000320 9d 40 2a be 50 94 b1 3d c5 3a 99 3d 10 52 08 3e
       -0.1662621 0.086708665 0.074819125 0.13312554
000330 9d 5f 8e 3c a5 1e 1b 3e d4 99 4a bd c7 40 0d 3c
       0.017379576 0.15148409 -0.04946311 0.008621401
000340 76 74 25 3e b4 d9 43 be c0 7f 1b be 95 82 c6 bc
       0.16157708 -0.19126016 -0.15185452 -0.024232188
000350 d6 bc 44 be dd bc 42 3e 9e 65 e8 3d 2e e6 b8 3d
       -0.1921266 0.19017358 0.11347507 0.09028278
000360 6a e8 f7 3d c7 14 0f 3e f6 9b 0f 3e fe e1 99 bd
       0.12104876 0.1397277 0.14024338 -0.07513808
000370 e7 ea c4 bc 98 21 7f 3d da c3 0d bb 72 63 06 3e
       -0.024037791 0.062287897 -0.002163163 0.13123873
000380 56 e5 ce 3d f4 23 c7 bc 88 21 51 bd 0f da c9 3d
       0.10102336 -0.024309136 -0.05105737 0.098560445
000390 8f 7e 02 3e 37 ae 2a be b7 65 db bd be 3e e1 b9
       0.12743591 -0.1666802 -0.1071276 -0.0004296209
0003a0 11 ea 06 be 3f c2 52 3e d9 31 35 be 67 d4 ea bc
       -0.13175227 0.20581912 -0.17694797 -0.028665734
0003b0 a0 d0 43 3e 8c 6e 1e 3c e8 4b 34 be 9c 59 3c 3d
       0.19122553 0.009669911 -0.17607081 0.045983896
0003c0 12 fe 26 be c8 5c 6f 3d 1e 75 10 be 3b d5 ee 3d
       -0.16307858 0.058438092 -0.14107177 0.11661764
0003d0 68 9d e1 3c a5 e3 2f 3e 97 e3 10 3e 83 fe 40 be
       0.027540877 0.17176683 0.14149319 -0.18847089
0003e0 60 90 07 be 3e 6c 47 3e 9f d0 af bd 29 fc cc bd
       -0.13238668 0.19474885 -0.08584713 -0.10009033
0003f0 f1 94 2b be 17 19 e4 bc d7 68 3a be 85 23 01 bd
       -0.16756035 -0.027843995 -0.18204056 -0.031528015

Fc2.0.bias f4 [128]
000000 05 ea 2a 3e ec 88 27 3e 20 44 06 be d0 c2 08 be
       0.16690834 0.16360825 -0.13111925 -0.13355565
000010 2f cc d8 bd 31 3f ce bc 70 0b d7 bd 6d c9 c5 3d
       -0.1058582 -0.025176616 -0.105002284 0.096575595
000020 35 46 6f 39 57 8c 63 bb 32 91 13 be 4a 03 38 bc
       0.0002281897 -0.00347211 -0.14410856 -0.011231253
000030 ad 2e 0e 3d a8 9c 17 3e c1 79 b5 bd 22 5b 8e bd
       0.034712482 0.14805853 -0.08861113 -0.06950976
000040 36 fc 9c 3d 78 12 15 3e ea 29 5e be 22 2f 63 bd
       0.07665293 0.14557827 -0.21695676 -0.05546487
000050 0a 55 4e be 62 57 17 bd 8f 96 e9 3d fc d6 b8 3d
       -0.20149627 -0.03694857 0.1140567 0.0902538
000060 25 ad 47 3e 97 07 43 3e 42 88 53 3e 1d c8 29 be
       0.19499643 0.19045864 0.20657447 -0.16580243
000070 0e 9c 17 3e 2c 6b b5 3d 84 0c 5c 3e ca 0d 09 be
       0.14805624 0.08858332 0.2148915 -0.13384166
000080 14 15 97 bd 17 cb 8a bc 98 6b 36 3d 1e 00 ee bc
       -0.07377067 -0.016942544 0.044536203 -0.02905279
000090 25 1a da 3d ce 7b 6b 3c 94 d9 f1 3d 57 3c 26 bd
       0.10649518 0.014372779 0.11809078 -0.04058489
0000a0 e3 56 6d 3d e3 c4 4c be 4e bc 3b be b0 60 d4 bd
       0.05794419 -0.19996981 -0.18333551 -0.10370004
0000b0 d8 a4 ff 3d 01 65 cc bd 45 2f ca 3d 7d 86 cc 3d
       0.12482613 -0.099802025 0.09872297 0.09986589
0000c0 2a 71 f8 3d d4 8c a7 bc 4b 87 58 3e ba a8 19 be
       0.12130959 -0.020452894 0.2114536 -0.1500577
0000d0 9c 86 86 bd 59 d7 13 be 50 a3 1b 3e 39 fa 09 3e
       -0.065686435 -0.14437617 0.15199018 0.13474359
0000e0 9e 54 58 3d 35 73 2e 3e fe ce 45 3e cf d0 24 3e
       0.052815072 0.17036135 0.19317243 0.16095279
0000f0 a7 08 27 3e e1 65 23 3e d2 30 3c be bf b6 e2 3c
       0.16311894 0.15956832 -0.18377998 0.02767503
000100 e8 13 2b ba 86 3a 0a bc 6f df 2a 3e 20 40 28 be
       -0.00065260986 -0.008436805 0.16686796 -0.16430712
000110 f9 ff 10 be 68 08 3d 3d 53 03 95 bd f4 99 a1 bd
       -0.14160146 0.046150595 -0.07276025 -0.07890692
000120 b4 37 db bc ea df 63 3e 94 1d d7 bd 05 68 3e 3c
       -0.02675996 0.22253385 -0.105036885 0.01162148
000130 13 f3 59 3d 2e 1c 4c be bb ba 1a be 30 b8 14 be
       0.05321033 -0.19932625 -0.15110295 -0.14523387
000140 b3 cf 16 3d 40 10 fb bd e8 64 46 be 25 bb 19 3e
       0.03681917 -0.12258959 -0.1937443 0.15012796
000150 c9 65 13 be 96 fb ff bc 92 22 c7 bd 91 33 7b bc
       -0.14394297 -0.031247895 -0.09723391 -0.015332119
000160 84 ba 09 be bb 78 36 bd ef 1a 3f 3d 65 f9 cf 3d
       -0.13450056 -0.04454873 0.046656545 0.1015499
000170 53 e3 2e 3d ee 24 35 be 1c ad 3c be 16 27 72 3e
       0.042697262 -0.17689869 -0.18425411 0.23647723
000180 34 ee 0d bd 99 c0 ab bc b3 84 c6 bc 06 5c e4 bd
       -0.034650996 -0.020965861 -0.024233198 -0.111503646
000190 3e fa 1f 3d 51 a9 b1 3c b5 08 2d 3e 36 26 9b 3b
       0.03905701 0.021687182 0.16897853 0.0047347797
0001a0 98 5c cc bd 50 3c 0b be 3c 45 99 bd f8 65 50 bd
       -0.09978598 -0.13597226 -0.074839085 -0.050878495
0001b0 82 2e 85 bd 87 77 e4 bd 84 fa 22 3d 6a 9d 24 be
       -0.06503011 -0.111556105 0.03978969 -0.16075674
0001c0 98 c8 c7 3b 85 99 80 3d 97 e6 19 3b cd 4e 3b 3d
       0.0060969107 0.062792815 0.002348339 0.045729447
0001d0 84 38 f3 3d 82 76 ff bd 3b e7 94 3c c6 86 24 3e
       0.11876014 -0.124737754 0.018176666 0.16067037
0001e0 dc 27 1d be 8f ff c3 bc e4 f9 ed bd 37 c9 04 3e
       -0.15347236 -0.02392557 -0.116199285 0.12967382
0001f0 c6 54 56 bd f3 f5 44 be ea f6 0b be cf 13 e7 3d
       -0.05232694 -0.19234447 -0.13668409 0.11283075

Fc3.0.weight f4 [128, 5]
000000 12 e1 cb be c0 f5 97 be 29 31 9b 3c 43 e0 5e 3c
       -0.39820153 -0.2967968 0.01894434 0.013603273
000010 aa ab e6 bb a8 cc 97 be d6 73 ce be 75 e0 47 be
       -0.007039507 -0.29648328 -0.4032275 -0.19519217
000020 65 d4 4e be 25 83 a9 be 1b fd be bd 6c a3 09 bd
       -0.2019821 -0.33107868 -0.0932562 -0.033603117
000030 c8 be 9b 3e 05 35 4f be 3d 00 3d 3d 2e 5e f8 bd
       0.30418992 -0.20235069 0.046142805 -0.12127338
000040 9e 71 20 3e 84 c2 2b 3e 89 85 2f 3d ad 80 b0 be
       0.15668342 0.1677342 0.04285196 -0.34473172
000050 04 66 7e be bd 70 90 be e1 bc 23 3e f5 ba e5 bd
       -0.24843603 -0.28211012 0.1599002 -0.112173
000060 57 66 21 3e 2d 41 7e be 45 ef a9 bd 13 5d b9 3e
       0.15761696 -0.2482955 -0.0829759 0.36203822
000070 81 0f a6 3e 74 c7 d3 3d f2 36 5d bd c6 ac 0f be
       0.32433704 0.10340777 -0.054007478 -0.14030752
000080 5b c3 cf 3e 51 9d 67 be e9 ba 35 3e fb 2a f9 3c
       0.40578732 -0.22618605 0.17747082 0.030416002
000090 64 45 ed bc 3a 36 db 3d 73 1e 0a be 26 33 d2 3c
       -0.028963752 0.10703702 -0.13488178 0.025659155
0000a0 a8 b6 2a 3e 00 7f 8c be 18 89 ab 3e 37 f7 39 3e
       0.1667124 -0.27440643 0.33503032 0.18160711
0000b0 86 c1 d7 3c 4f 8c 80 be 93 1b 87 be 1a ce 89 bc
       0.026337396 -0.25107047 -0.26388225 -0.01682191
0000c0 bf 5a 54 3e d5 93 da 3e a6 82 9d 3e c4 0d 6a be
       0.20737742 0.42690912 0.3076374 -0.22856814
0000d0 66 f6 c6 3e df 1e 93 3e 63 56 bb bd cd cb c0 3e
       0.38859862 0.2873449 -0.09147336 0.37655488
0000e0 60 bf 7b be 5e 93 6b be f1 6b 10 3e 26 01 10 3e
       -0.24584723 -0.23005435 0.14103676 0.14062938
0000f0 0e 2f 33 3e fa ab 87 be 23 e4 f4 3d 16 60 b9 3d
       0.17498419 -0.26498395 0.11957576 0.0905153
000100 a7 36 92 be 84 a7 c8 be 28 f3 86 3e 75 1f 07 bd
       -0.2855732 -0.39190304 0.26357388 -0.032988984
000110 61 dc 86 be a1 23 b5 bd 3c 13 52 bd a9 cb 34 3a
       -0.2634001 -0.08844686 -0.051287875 0.0006896803
000120 a5 bc a9 3e f5 ec 5f 3d fd 55 8b 3d 4a d4 98 bd
       0.33151737 0.05466934 0.0680351 -0.07462366
000130 6e 6f 48 3e b9 05 19 3d 9b ed 2c bc 21 3e 80 be
       0.19573757 0.037358973 -0.010554696 -0.250474
000140 c0 a6 c9 3e 41 c5 47 bd c6 3e a6 3d 6a 64 80 be
       0.39385033 -0.0487721 0.08117442 -0.2507661
000150 3f 06 2a 3e 50 5d c2 be 6b 0c 33 be c5 a3 82 3d
       0.16603945 -0.37961817 -0.17485206 0.06378893
000160 27 a1 cb 3d 9f fc ca be cc 00 09 be 26 af e6 bd
       0.09942847 -0.3964586 -0.1337921 -0.11263876
000170 2b 99 d1 be 98 7c cd be 7f 5e b9 3e c5 97 de be
       -0.4093717 -0.4013412 0.36204907 -0.43475166
000180 24 91 c7 be 18 b8 c7 3e 66 e2 43 bd 95 03 8b 3e
       -0.3897792 0.3900764 -0.047823332 0.2715117
000190 7b 8f dd 3e 6c 87 ba be 74 23 9e be 73 10 82 3e
       0.4327353 -0.36431444 -0.30886424 0.25403175
0001a0 a8 cf 44 3e dd 72 c8 3e 30 28 b0 be e3 2d 40 be
       0.1921984 0.39150134 -0.3440566 -0.18767504
0001b0 97 9f 89 be 07 41 cf 3e 02 e3 81 3e f2 d1 19 3e
       -0.2687957 0.404793 0.25368506 0.15021494
0001c0 4f 92 26 3e c3 6b 91 3e b2 ae 2b be 7c 78 87 be
       0.1626675 0.28402528 -0.1676586 -0.2645911
0001d0 dd ef 86 3e 47 03 ab 3e 00 67 2a bc 7f 42 83 be
       0.26354876 0.33400938 -0.010400534 -0.2563667
0001e0 4f cd 71 be a9 fa 75 be 9e 65 86 3d 17 56 ab 3e
       -0.23613475 -0.240214 0.06562351 0.3346412
0001f0 eb 80 49 3e 96 97 2b 3e 9e 12 99 3e c8 83 ba be
       0.19678085 0.16757044 0.29897016 -0.36428666
000200 05 c2 43 3d 06 8c 0c 3e 55 af c9 bd ca cc ac bd
       0.047792453 0.1372529 -0.09847895 -0.08437498
000210 ca b5 a3 bc 26 4b 3a be 7c 0b 3b be ef 46 a7 3e
       -0.019984145 -0.1819273 -0.182661 0.32671306
000220 66 7f 55 bd be 1d 3d 3e 8b 0c b8 be ec e1 f7 3d
       -0.05212345 0.18468377 -0.3594707 0.12103638
000230 ad 6d 6f be 2f bd 80 be 96 7c 9a be 17 d5 97 be
       -0.23381682 -0.25144336 -0.30173177 -0.29654762
000240 41 58 8a be 5e 05 be 3e 69 f8 76 be 1a 76 a3 3d
       -0.27020457 0.3711347 -0.24118198 0.079815105
000250 53 68 d0 3d 0b bd 1c 3e 54 c2 a8 3d 9f e2 97 3e
       0.10176148 0.15306489 0.0824019 0.29665086
000260 1c 65 cc 3e 9d 88 ce be 30 06 c4 3e b9 26 bb 3d
       0.3992089 -0.40338603 0.3828597 0.09138245
000270 68 58 1c bd 90 aa 9a 3e 37 49 63 bd 88 80 3a 3e
       -0.03817025 0.30208254 -0.055489745 0.18213093
000280 c6 48 08 3d df 65 09 3e 54 a6 c2 3e 09 00 ac bb
       0.033272527 0.13417767 0.38017523 -0.0052490276
000290 03 30 67 3e 4c 00 e7 bd 34 d6 c2 bd cc ee be be
       0.22576909 -0.112793535 -0.09513512 -0.37291563
0002a0 98 10 c5 bd 30 3c 18 3e 6a dc 65 3e b3 31 7d be
       -0.09622306 0.1486671 0.22447363 -0.2472599
0002b0 0e b5 66 3e ef 1d cc 3d 44 67 83 bd d6 10 d2 bd
       0.22530004 0.09966647 -0.06416181 -0.102571175
0002c0 cf d2 de be 6b b8 11 3e 7e a0 cd be ab 07 96 3d
       -0.4352021 0.14230506 -0.40161508 0.07325681
0002d0 66 ce a5 be 9c bf 9d 3e a1 13 5a 3e e6 fc ae 3e
       -0.32384032 0.3081025 0.2129655 0.3417732
0002e0 35 f7 e6 3e a3 a4 33 be bb 5e 7a be b9 46 4b 3c
       0.4511048 -0.17543273 -0.244502 0.012406998
0002f0 47 5d 34 3d 9f ac 80 bd cd 8d e5 bd cb ac 9e be
       0.04403427 -0.06282925 -0.11208687 -0.30991206
000300 0c 02 c3 3e ef 7f a2 3d 60 b4 ff bc ee b0 bc 3e
       0.380875 0.07934558 -0.03121394 0.36853737
000310 c0 bb f9 3d d0 a0 c3 be d7 3d 6f 3e c5 30 e0 3d
       0.121940136 -0.38208628 0.23363434 0.10946802
000320 7d 53 d9 3e 9a 8c 25 be b6 c2 9a be 37 50 cf bd
       0.4244651 -0.16166916 -0.30226678 -0.10122722
000330 f5 33 3d be 6b bb ba 3e bc 16 ab be 77 65 71 be
       -0.18476851 0.36471114 -0.33415782 -0.23573862
000340 12 d6 af 3e ef 2d ee 3d a2 52 6f 3e a9 b6 9f bd
       0.3434301 0.11629855 0.23371366 -0.077985115
000350 5b fa 0c be e3 91 36 3e 42 98 2f 3d 1a e4 60 3e
       -0.13767378 0.17829089 0.042869814 0.21962014
000360 1a a6 57 be e5 88 14 3e 1b 20 be 3e 82 75 de be
       -0.21059456 0.14505346 0.3713387 -0.43449026
000370 f1 4f da be 1e b0 64 3e 89 89 f0 3d da d1 61 be
       -0.42639115 0.22332808 0.11744983 -0.22052708
000380 23 68 a0 be cd ee 5d be 02 73 cd bd ba 0f 64 3d
       -0.3132945 -0.21673127 -0.100317016 0.05567906
000390 f9 82 12 be 25 ba 9f 3e a7 ba b2 3e 45 b0 9b bd
       -0.14307775 0.31196705 0.3490803 -0.0760198
0003a0 e3 83 ad 3e a7 47 05 3e 2c e4 c2 be 9e bd a7 3d
       0.33889684 0.13015614 -0.38064706 0.081904635
0003b0 8c 88 46 be 6f 9e f2 3d 13 62 18 3e ae 92 4b bd
       -0.19388026 0.11846625 0.14881162 -0.04970043
0003c0 e0 4b dc be 4f 9e a9 3b 2e c2 d9 be 4f 80 d6 3c
       -0.43026638 0.0051763426 -0.4253096 0.02618423
0003d0 88 d9 a5 3e b4 5a 56 3e 78 65 e0 bd 73 78 f9 bc
       0.32392526 0.20933038 -0.10956854 -0.030452942
0003e0 20 1f 48 bd 49 bd ca bd e9 77 95 be c0 af b5 be
       -0.048857808 -0.098993845 -0.29193047 -0.3548565
0003f0 75 cc b9 3e 2f cf 25 3d 22 77 c2 be 11 88 db 3e
       0.362888 0.04048079 -0.37981516 0.42877248

Fc3.0.bias f4 [128]
000000 cd d8 87 be e1 4a 56 be 91 83 9c 3e 54 7b d4 3c
       -0.26532593 -0.20927002 0.30569127 0.025937714
000010 8b d0 b8 3e ff 5c 80 3d 53 a3 f9 3d f0 b9 81 3e
       0.36096606 0.062677376 0.12189355 0.25337172
000020 bc 28 09 3e 77 1a ca bd e6 d6 8b 3e 43 16 b3 3e
       0.13394445 -0.09868329 0.27312392 0.34977922
000030 d4 ed 9b be f8 ac c8 3e ec 47 8c 3e 15 2f 97 be
       -0.30454886 0.39194465 0.27398622 -0.29528108
000040 b5 f6 6c be d2 dd ae be 91 68 d5 3e 13 1f c9 bd
       -0.23140986 -0.3415361 0.4168134 -0.0982038
000050 a6 ab c5 be b8 99 a6 3e 0b 14 6a be 6c 12 8d 3d
       -0.3860752 0.32539153 -0.22859208 0.06888279
000060 c0 f7 a2 bc 6f d1 22 be 01 98 11 3c 13 29 34 3e
       -0.019893527 -0.15900205 0.008886338 0.17593794
000070 32 d7 e8 bd 6d 09 59 3c 7c ed 8d be 78 07 c5 be
       -0.1136917 0.013246876 -0.2772025 -0.3848226
000080 32 3a 02 3d 61 a4 9e 3e 46 d3 81 3e 4c c2 94 3e
       0.03179378 0.30984786 0.253565 0.29054487
000090 e8 8a 9e 3e ce af 22 be c0 b0 16 be e3 98 d2 3e
       0.30965352 -0.15887377 -0.14715862 0.41132268
0000a0 32 92 ba be c8 b1 dc 3e 86 3b 93 3e b4 21 35 be
       -0.36439663 0.43104386 0.2875635 -0.17688638
0000b0 98 0f dc 3e 37 aa 4e be de 5e 5d bc 10 9b cf be
       0.42980647 -0.2018212 -0.013511388 -0.4054799
0000c0 6e 57 48 be f4 76 f5 3b ad 8e 03 be 4b ed 99 3d
       -0.19564602 0.007490987 -0.12847395 0.07515963
0000d0 74 50 b7 3e 78 1a da 3e 23 06 d1 be 9f 3e 87 3e
       0.35803568 0.4259832 -0.40824994 0.26414964
0000e0 6e c0 f2 bd d1 38 b9 3e 3a 23 be be 22 e3 02 3e
       -0.11853109 0.3617616 -0.3713625 0.12781957
0000f0 6a 33 8f bc 7e 0e 23 3d 9d e6 29 be 34 11 b4 3e
       -0.01748057 0.039808743 -0.16591878 0.35169375
000100 98 62 2b 3e 69 b5 4f be ea 48 b0 bd e1 df c9 3e
       0.1673683 -0.20284046 -0.08607657 0.3942862
000110 6e 0f 80 bd 37 4e 9b 3d e6 be ad 3e 47 87 cc be
       -0.06252943 0.07583278 0.33934706 -0.39946958
000120 86 76 cd be 8e ee 86 3d 1b a5 9b be d6 7c bc 3e
       -0.4012949 0.065884694 -0.30399403 0.36813992
000130 82 54 1c 3b a3 f7 d5 be fe b7 6b be 0c 4d c6 3e
       0.0023854082 -0.41790494 -0.23019406 0.38730657
000140 d0 c3 ac 3c a6 c7 28 be 14 7c e9 bd 12 be ae 3e
       0.021089464 -0.1648241 -0.11400619 0.34129387
000150 1d b4 b7 3b 86 71 cd be 36 5b 87 3e 80 7d 0d be
       0.005606188 -0.40125674 0.26436776 -0.13817406
000160 c0 65 ca be 2d 6d 9e be 78 c2 48 3e c6 a1 be bd
       -0.39530754 -0.3094267 0.19605434 -0.093081996
000170 d5 76 9d 3d 5e d8 8a be ba 5f 65 be f8 1f dd 3c
       0.07688681 -0.271182 -0.22399798 0.026992783
000180 80 2c 37 3e 32 57 af 3e 41 33 f4 3a 88 c9 40 3d
       0.17888069 0.34246212 0.0018630998 0.047067195
000190 5f 1a ae be 3a ba c2 be 43 78 0f 3e a8 22 1c 3e
       -0.34004495 -0.38032705 0.1401072 0.15247595
0001a0 26 31 93 be b4 1d 4d be a3 26 4a 3d 54 84 ae be
       -0.28748435 -0.20030862 0.049353253 -0.34085333
0001b0 a8 8a d2 3e db f0 bb bd a4 6b d5 bd de 7f 0d bc
       0.4112141 -0.09176799 -0.104209214 -0.008636443
0001c0 d0 50 39 3e 7e 58 c9 be f4 5b 99 be e8 2d eb 3d
       0.18097234 -0.39325327 -0.29952967 0.11483365
0001d0 1e e8 98 3e e6 cd b6 3e 0c 38 c3 3e e6 7d fa bd
       0.2986459 0.35703963 0.38128698 -0.122310445
0001e0 f6 8b 67 bd 40 fb 8c 3b ac 6e 5e 3e 02 77 20 3c
       -0.05652996 0.0043024123 0.21721905 0.009793999
0001f0 67 8a 89 3d c3 2a fb bd c5 c6 7e be 72 36 f4 bc
       0.06715851 -0.122640155 -0.24880512 -0.029811118

fc_concat.0.weight f4 [1, 384]
000000 51 bc 23 3d f4 6a 52 bd 39 53 e9 3b c1 60 e0 bc
       0.039974514 -0.05137153 0.0071205166 -0.027389886
000010 68 03 65 3c 4c 6c 31 3d df de 01 3d ad c3 06 3d
       0.013977863 0.04331617 0.031706687 0.032901455
000020 f0 d8 e4 bc b6 92 73 bc 8f fa c8 bc 8f 65 0a bd
       -0.027935475 -0.014866522 -0.024533538 -0.03378826
000030 03 47 2b 3d d3 55 c5 3c 7a d7 fd bb 5e c8 e1 3b
       0.04181577 0.024088776 -0.007746634 0.0068903407
000040 b0 54 66 3c 8b 63 37 3d 2e d7 3e 3c 43 d3 81 3c
       0.014058277 0.044772666 0.0116479825 0.015847808
000050 68 e6 be 3c 7d 0e ff ba 91 b1 23 bd 09 02 48 bc
       0.023303226 -0.0019459274 -0.039964262 -0.0122075165
000060 43 cd d0 bc 73 d2 41 bc 0d 1a 3f 3d 5a a6 80 bc
       -0.025488501 -0.01182996 0.046655703 -0.015704323
000070 25 08 34 bb 27 32 26 bd 74 90 d6 3c 7d 81 ce bc
       -0.0027470675 -0.040575173 0.026191927 -0.02520823
000080 1e 40 21 3d 7f 68 0e bc 59 5a b8 3c 84 49 06 3d
       0.039367788 -0.008691906 0.022504019 0.032784954
000090 50 28 f5 3c dc b1 08 3c 95 a3 22 bd 0c 42 22 bd
       0.029926449 0.008343186 -0.039706785 -0.03961377
0000a0 ab 18 b1 3c 34 e6 95 bc 6b a6 c7 bc 79 b0 08 bd
       0.021618208 -0.018298246 -0.024371346 -0.033371422
0000b0 84 40 5b 3d ab 8c 4c bc a2 30 ed 39 67 c0 17 bd
       0.053528324 -0.01248471 0.00045240397 -0.037048724
0000c0 e6 88 f9 bc 6c d7 a7 bc c0 68 49 3c 70 6f 06 3d
       -0.030460786 -0.020488463 0.012293041 0.03282112
0000d0 88 23 e7 bc 74 4e a9 bc 07 3a 1e 3b b3 de 2a bd
       -0.028215185 -0.020667292 0.0024143474 -0.04171629
0000e0 cf d8 89 3c 86 33 37 3c 53 10 7c bd 58 33 b4 3c
       0.016827015 0.011181718 -0.061539005 0.021997139
0000f0 6c ce d9 bc 8c 1b 49 bd 29 64 16 bd 52 98 59 bd
       -0.026587687 -0.049098536 -0.036716614 -0.05312378
000100 1e e1 59 bd 80 ff f1 3c 1b ac a8 3b 83 fd b9 bb
       -0.053193204 0.029540777 0.0051474697 -0.005675973
000110 00 1d 05 3d f0 a8 3b bd fd bd cd bb 6f 14 27 3d
       0.03249836 -0.04581541 -0.006278752 0.04079097
000120 8c 21 1a bd 8c 11 ce bc 19 1a 28 3c cf f2 ce ba
       -0.03762965 -0.025154851 0.010260128 -0.0015788915
000130 f5 90 1b 3d 92 82 a7 3b f9 04 80 bc 63 dd 44 3d
       0.03798004 0.0051120007 -0.015627371 0.048062693
000140 51 d6 68 ba 8d 17 f1 3b a5 bb aa bc 53 44 3a bd
       -0.0008882033 0.007357544 -0.020841429 -0.045475315
000150 d8 a4 21 3d 80 b1 24 bd f7 fd 0a 3c 2e 6a 37 3d
       0.039463848 -0.04020834 0.0084834015 0.044778995
000160 d8 75 55 bc 66 12 b1 3b b2 22 c8 3c df 7a a0 3c
       -0.013028584 0.0054038046 0.024430607 0.01958984
000170 57 64 0a bd e6 43 81 3c d5 60 e5 3c 88 32 fe 3c
       -0.033787098 0.015779447 0.028000275 0.031029955
000180 39 ec 2e 3d f2 2f c6 bb 38 22 1c 3d 08 fc ad 3c
       0.04270575 -0.006048196 0.03811857 0.021238342
000190 0b 97 74 3c b6 e5 2a 3c 66 1f 45 3d d8 de 30 bd
       0.01492859 0.010430744 0.048125647 -0.04318127
0001a0 2b 57 45 bd 54 0e 1c 3d c8 e3 d2 bc 6f ff b8 bb
       -0.048178833 0.038099602 -0.02574338 -0.0056456844
0001b0 fd 02 2e 39 3a 77 3d bc 5f 54 b8 3c 10 f2 fd bc
       0.00016595046 -0.01156407 0.022501169 -0.030999213
0001c0 49 c3 36 bd e3 ec 28 bd 40 c2 dc 3c b7 63 d6 3b
       -0.044619832 -0.041241538 0.026948094 0.0065426487
0001d0 0d 33 b0 3a ea 77 9d bc 8e 87 dd 3c 92 07 ee bc
       0.0013442949 -0.019222219 0.027042177 -0.029056344
0001e0 f0 e9 87 3a 90 db f5 bb 45 c0 8b bd f2 09 bd bc
       0.0010369401 -0.0075029805 -0.06823782 -0.023076031
0001f0 75 75 2b bd fe 0e bb bc 6e 53 43 bc 97 ca 90 3b
       -0.041860063 -0.022834297 -0.011921747 0.004418682
000200 76 ce 8b bd e7 99 59 bd 28 45 29 bd 31 15 4d bd
       -0.06826489 -0.05312529 -0.04132572 -0.050069038
000210 27 6d 5f bc 7d 73 08 3d 4d 0a b8 3c 32 1d c4 bc
       -0.013636864 0.033313263 0.02246585 -0.023939703
000220 f2 39 c4 3b 8a ba 17 bc 56 28 09 b9 84 e3 e9 3c
       0.005988353 -0.009260783 -0.00013080364 0.02855087
000230 7e 44 ed 3c 7e e5 11 3d 05 45 f0 3b 9e bd 68 3d
       0.028963324 0.03561925 0.0073324465 0.056821458
000240 da c1 57 bd 95 ee 22 bd 39 ea 33 bd 41 0c 4e bc
       -0.052675106 -0.03977831 -0.043924544 -0.012576164
000250 f3 b5 17 bd 24 9c 36 bb 65 7d 52 3c b0 27 f9 bb
       -0.037038755 -0.0027864063 0.012847279 -0.007603608
000260 85 53 b7 bc a4 7c 2d bc 71 8a 0f bd 4b 90 59 bb
       -0.022378692 -0.010588799 -0.035044137 -0.0033197578
000270 e5 5e 58 bc 28 ef 94 3c 48 b1 84 3b f1 46 1a bd
       -0.013206218 0.018180445 0.004049454 -0.03766531
000280 a0 97 40 bc 82 ae d5 bb c2 cb 80 bd 44 be 84 bc
       -0.0117549 -0.006521047 -0.06288864 -0.016204007
000290 46 aa 86 bc 41 70 32 3d 90 f4 17 3c a9 2b f7 bb
       -0.016438615 0.043564085 0.009274617 -0.0075430465
0002a0 7a 1b 93 bc aa 91 62 bd 55 2e 1a 3d 2e 9d 38 3c
       -0.017957438 -0.055314697 0.037641842 0.011267943
0002b0 7a 6b f1 3c 23 a4 fb 3c 45 ac b2 3c e1 ef 14 bc
       0.029470194 0.030717915 0.02181066 -0.009090395
0002c0 74 6c 41 3b d8 20 dd 3c 9a 8d 21 bd 1c 67 60 3d
       0.0029514106 0.0269932 -0.039441682 0.054785833
0002d0 7b df ce 3c dd 53 f3 bc 56 f5 f3 3c 70 2a df bc
       0.025253048 -0.029703075 0.029780071 -0.027241915
0002e0 17 e8 fd bc 71 19 10 3d 97 44 a8 3b b0 36 9b b9
       -0.030994458 0.035180513 0.0051351297 -0.0002960465
0002f0 2d e8 bd bb c5 8a 4c bd dc e8 b5 bb 2b 0b 2c bd
       -0.0057955 -0.04993703 -0.0055514406 -0.042002838
000300 c3 04 40 3c 87 1f 27 3d a2 88 0c 3d 73 52 56 3c
       0.011719885 0.04080155 0.03430999 0.013081181
000310 8e 96 ca bb 6b d0 e3 3c 05 67 5a 3c 2c e5 94 3c
       -0.0061824983 0.027809342 0.013330226 0.018175684
000320 74 1b 1a 3d 8e 5c 01 bd 4c ef 2d bd 39 ca 04 3c
       0.037623838 -0.031582408 -0.04246454 0.008104854
000330 80 c1 0a 3d 96 81 da bb 62 06 5e b9 b4 8e 26 bd
       0.033875942 -0.00666828 -0.00021173948 -0.040663436
000340 df 62 ec 3b 31 1e be 3a 86 2c b0 bc f4 47 01 3d
       0.007213935 0.0014504847 -0.021505605 0.03156276
000350 cb 85 4c bd 73 c8 f4 bc 3b 5c 06 bd c1 9d ab 3c
       -0.049932282 -0.029880738 -0.0328028 0.020949246
000360 92 29 cf 3c f2 42 25 bc 3c 9f cb 3c 4f c2 88 bc
       0.025288377 -0.010086762 0.024856202 -0.016694216
000370 23 35 30 bd 31 1c c3 3c bb 41 3e bc 82 c0 61 bd
       -0.043019425 0.023817154 -0.011612351 -0.05511523
000380 fd 78 87 3b b7 94 b1 3c 5c a6 97 3c f5 eb 3d bc
       0.004134296 0.021677358 0.018511944 -0.011591901
000390 fb 88 0b 3d 0a 72 b4 bc 70 45 9b 3c e6 09 fb 3c
       0.03406618 -0.022027034 0.018954009 0.030644368
0003a0 83 70 1f bd be f2 11 3d 92 fd 13 bd b6 a9 75 3b
       -0.03892566 0.035631888 -0.036130495 0.0037485189
0003b0 eb a5 2e 3b c6 65 99 3a 70 f6 c2 3c 9c f4 36 3c
       0.0026649188 0.0011703304 0.023799151 0.011166718
0003c0 ee fa a4 bc 8f 8b 0c 3d cf 65 c9 bc ad c9 29 bb
       -0.020139184 0.03431278 -0.024584679 -0.0025907562
0003d0 2f b1 a1 3c 79 a8 e7 ba 2f d1 1f 3d 2c ea 00 3d
       0.019737808 -0.001767411 0.039017852 0.031473324
0003e0 31 53 c3 bc e6 16 92 bc 31 c4 dd bc bd 7f c5 3b
       -0.02384338 -0.017833184 -0.02707109 0.0060271905
0003f0 73 10 c2 3c 49 ca 86 bc 29 2f 8d 3c db b6 ca 3c
       0.023689484 -0.016453879 0.017234402 0.024745395
