DSLL/lpm_model_mse_v1_3.pth (torch, 70255 bytes, 7 tensors)

Fc1.0.weight f4 [128, 100]
0	0xbcdab865	-0.026699254
1	0xbd277745	-0.04088523
2	0xbd2a4c7b	-0.041576844
3	0xbd98a0c2	-0.07452537
4	0xbdb8a915	-0.09016625
5	0x3da2a478	0.07941526
6	0x3d405b41	0.046962027
7	0x3da5a866	0.0808876
8	0x3dbddaca	0.09270246
9	0xbd39d106	-0.045365356
10	0xbde6015b	-0.11230727
11	0xbd7c946d	-0.061664987
12	0x3da43db9	0.08019585
13	0xbd069c36	-0.032863818
14	0xbce16526	-0.027514052
15	0xbbc3bc35	-0.0059733638
16	0xbdb13d70	-0.086542964
17	0xbc4ae8f9	-0.012384647
18	0xbdac18c4	-0.08403161
19	0x3de455f4	0.11149207
20	0x3d796da3	0.060895573
21	0x3c81d06e	0.015846457
22	0xbba32dd1	-0.004979827
23	0xbda4b0f8	-0.080415666
24	0xbdce8f91	-0.10085977
25	0x3dd85e16	0.105648205
26	0xbdbaf674	-0.091290385
27	0xbd6712e0	-0.056414485
28	0x3dc187b1	0.09449709
29	0xbd9c5c82	-0.07634832
30	0xbc6043c0	-0.013688028
31	0x3d5a4f91	0.053298537
32	0xbca8bf84	-0.020599134
33	0x3dadc6a5	0.08485154
34	0x3ddc3640	0.10752535
35	0x3d428800	0.04749298
36	0xbd73e82c	-0.05954759
37	0xbd5afcf9	-0.05346391
38	0xbd844288	-0.06458002
39	0x3dcd0a23	0.10011699
40	0x3d561aae	0.052271537
41	0x3dba54a3	0.090981744
42	0xbcecf45d	-0.028925115
43	0xbdca3c9d	-0.09874842
44	0x3d8c093a	0.06837697
45	0xbdc329df	-0.09529471
46	0x3c19e6e1	0.009393425
47	0xbbbc79b8	-0.0057518147
48	0x3c3e4cab	0.011614959
49	0x3caf5642	0.021403436
50	0xbda60e2f	-0.08108174
51	0xbda4ab88	-0.080405295
52	0xbc84c6f8	-0.016208157
53	0x3d07ecaf	0.033184703
54	0x3c8dc490	0.017305642
55	0x3d83cf32	0.06436004
56	0xbda12eeb	-0.07870277
57	0xbd9b9a79	-0.07597823
58	0xbd695ae4	-0.056971446
59	0x3d97ef68	0.0741871
60	0xbd02c67a	-0.031927563
61	0xbcc0f845	-0.023555884
62	0xbba8aed6	-0.005147795
63	0x3dc446c6	0.095838115
64	0x3d4dab4a	0.050212182
65	0xbd1c2759	-0.038123462
66	0x3d5e5629	0.054281387
67	0x3d487396	0.048938356
68	0xbd62926e	-0.055315427
69	0xbb5b52ad	-0.0033466027
70	0x3cf2441b	0.02957349
71	0x3d42d8f1	0.047570173
72	0xbd9b1982	-0.075732246
73	0xbd68dffd	-0.056854237
74	0xbc835276	-0.016030531
75	0x3c489445	0.012242381
76	0xbd1749e3	-0.0369357
77	0xbcff060d	-0.031130815
78	0x3d8bea5e	0.06831811
79	0xbd13a717	-0.03604802
80	0x3da83676	0.082135126
81	0xbd28dd0c	-0.04122643
82	0x3b0b31e3	0.0021239452
83	0xbdadbc48	-0.084831774
84	0x3ba3429b	0.004982305
85	0x3d72bfc4	0.059264913
86	0xbd9e8711	-0.077406056
87	0xbdcb2690	-0.099194646
88	0xbd35545e	-0.044269912
89	0x3db381d4	0.08764997
90	0xbd9cb6c9	-0.07652051
91	0x3d55307d	0.052048195
92	0xbc56b38e	-0.013104333
93	0x3cf02730	0.029315561
94	0xbd53c223	-0.051698815
95	0xbd90b9bf	-0.07066678
96	0x3b199c4a	0.0023439103
97	0xbb85db32	-0.004084968
98	0xbb5270f3	-0.003211078
99	0x3dcc2671	0.099682696
100	0xbdbe51b1	-0.09292925
101	0x3cd2a3c3	0.025712853
102	0x3ce05a47	0.027386798
103	0xbd35b481	-0.044361595
104	0xbd9aee24	-0.07564953
105	0x3d7499aa	0.059716858
106	0x3dddf465	0.1083763
107	0xbd8089ab	-0.06276258
108	0x3da678aa	0.081284836
109	0xbd5ae41a	-0.05344019
110	0x3d40f86d	0.047111917
111	0x3d8beb88	0.068320334
112	0x3d8014bc	0.06253955
113	0x3d9ab475	0.07553951
114	0xbd53d5a7	-0.051717427
115	0xbd5b0c2a	-0.053478397
116	0xbc39a4c0	-0.011330783
117	0xbd9b70e3	-0.07589891
118	0x3ce48846	0.027897011
119	0xbd27aad8	-0.040934414
120	0xbc13e90e	-0.009027733
121	0x3ca980d1	0.020691307
122	0xbd9aab82	-0.07552244
123	0xbc1835b0	-0.009290144
124	0xbd2f565b	-0.042806964
125	0x3d18f6b2	0.037344642
126	0xbc4265f6	-0.01186513
127	0x3cb1db58	0.021711037
128	0x3da9de86	0.08294396
129	0xbda75016	-0.08169572
130	0xbd80173e	-0.06254433
131	0xbc7e3e87	-0.015517837
132	0xbdd4c1b8	-0.103885114
133	0x3db18a04	0.086689025
134	0x3da43128	0.08017188
135	0xbc9eb13c	-0.019371621
136	0xbd378f7b	-0.044814568
137	0x3de4dce1	0.11174942
138	0xbc85ea60	-0.01634711
139	0xbd8d5713	-0.06901374
140	0xbda9446a	-0.08265002
141	0xbc21719c	-0.009853747
142	0x3d839c84	0.06426337
143	0x3da10668	0.0786255
144	0xbd8369f1	-0.06416691
145	0x3c3e0eaa	0.011600176
146	0x3dcda1d1	0.1004063
147	0xbd6e51cd	-0.05818348
148	0xbd84824c	-0.06470165
149	0xbd5b1129	-0.053483162
150	0xbcab1b11	-0.02088693
151	0xbc132bda	-0.008982623
152	0x3d36da77	0.044641938
153	0xbb882512	-0.0041548098
154	0xbd09a7a2	-0.033607133
155	0xbdc630eb	-0.09677299
156	0xbcb9cba3	-0.02268011
157	0x3c104979	0.00880658
158	0xbdb1d1ef	-0.0868262
159	0xbc23fe59	-0.010009372
160	0xbc893e41	-0.016753318
161	0x3db628ae	0.08894478
162	0x3c5dfb42	0.013548674
163	0x3d87fe6c	0.06640324
164	0xbae46ae1	-0.0017426872
165	0x3dad98c1	0.08476401
166	0xbc14dc2a	-0.009085694
167	0x3d9e5bc9	0.077323504
168	0xbd214cbb	-0.039379817
169	0x3d91d2a7	0.07120257
170	0x3bd6b203	0.0065519824
171	0xbd92aae8	-0.07161504
172	0xbdae6c7a	-0.08516784
173	0xbd6ab9c6	-0.057306074
174	0xbd6f960d	-0.05849271
175	0xbd5b475c	-0.05353485
176	0xbc507802	-0.012723925
177	0xbd85405c	-0.06506416
178	0xbc4eaf86	-0.01261509
179	0x3dab678e	0.08369361
180	0xbcef4636	-0.029208284
181	0x3caff66a	0.021479804
182	0x3cb5c279	0.022187458
183	0x3cb2302c	0.021751486
184	0x3d84359a	0.06455536
185	0x3c8d2ac2	0.017232303
186	0x3dc331be	0.09530972
187	0xbd816cdc	-0.063195914
188	0x3d5eb54e	0.054372124
189	0xbdaaad9d	-0.08333895
190	0xbd65d35a	-0.056109764
191	0xbd2c1952	-0.042016335
192	0x3d8fb81d	0.07017539
193	0xbd85a35e	-0.065253004
194	0x3d61367a	0.054983594
195	0x3dbf91d8	0.09353989
196	0xbdac3809	-0.08409125
197	0xbd2a3b34	-0.041560367
198	0xbd2098f3	-0.039208364
199	0xbd987a90	-0.07445252
200	0xbdbb5dc4	-0.09148744
201	0x3d89773d	0.06712196
202	0xbce396fb	-0.027781954
203	0x3d83b27c	0.064305276
204	0xbd48f8da	-0.04906545
205	0xbd97486c	-0.0738686
206	0x3ca17f97	0.01971416
207	0xbdc055a2	-0.09391333
208	0x3bb022dd	0.00537525
209	0xbdbe7239	-0.0929913
210	0xbd65fe03	-0.056150448
211	0x3d57ec36	0.052715503
212	0x3d6f4300	0.058413506
213	0xbce27734	-0.027644731
214	0x3d58c02f	0.052917656
215	0xbc82b8e2	-0.0159573
216	0xbd14e033	-0.036346626
217	0x3c6e8e0d	0.014560235
218	0x39baf534	0.00035659375
219	0x3dd6199d	0.10454104
220	0xbd52fb7c	-0.051509365
221	0xbd99c069	-0.075074024
222	0x3d722681	0.05911875
223	0x3da16c10	0.078819394
224	0x3d910f29	0.0708297
225	0x3ce61266	0.028084945
226	0xbb703f79	-0.0036658926
227	0x3d1bec7f	0.038067337
228	0x3d4aa03a	0.04946921
229	0x3d97006c	0.07373127
230	0x3d495e8e	0.04916244
231	0x3daa53fa	0.083167985
232	0xbd9f6712	-0.07783331
233	0xbd2a2a5f	-0.041544314
234	0x3dc08a40	0.09401369
235	0xbbe31fa0	-0.00693126
236	0x3b484f8d	0.0030564994
237	0x3b3356da	0.0027365
238	0xbd1a5a01	-0.03768349
239	0x3d640c28	0.055675656
240	0xbce60d82	-0.028082613
241	0x3d44a7fa	0.048011757
242	0xbdb70d5c	-0.08938095
243	0xbd5674f2	-0.05235762
244	0xbd860b71	-0.06545151
245	0x3d04c4cb	0.03241424
246	0x3db0c14e	0.0863062
247	0x3d8e4091	0.06945909
248	0xbc15a0b6	-0.009132555
249	0x3da85401	0.082191475
250	0xbcd53a37	-0.026028736
251	0x3d3d17f5	0.046165425
252	0x3d8e3ef4	0.06945601
253	0xbd600b0a	-0.054698028
254	0xbd4c6a4d	-0.049906064
255	0xbd93550c	-0.07193956

Fc1.0.bias f4 [128]
0	0xbda41b04	-0.08012965
1	0x3d6958bf	0.0569694
2	0x3c5542be	0.013016401
3	0xbda9cd23	-0.0829108
4	0xbd947f23	-0.07250812
5	0xbd584c53	-0.052807163
6	0x3d960d83	0.07326796
7	0x3d99e138	0.0751366
8	0x3d6e918c	0.058244273
9	0xbbfec162	-0.007774518
10	0xbda33312	-0.07968725
11	0xbd5c2434	-0.053745463
12	0x3dc0ecd2	0.0942017
13	0xbdb1536d	-0.0865849
14	0x3cc4ca53	0.024022257
15	0x3dd8ee3a	0.10592313
16	0x3c829a47	0.015942706
17	0xbcfa9c38	-0.030592069
18	0x3d73dcce	0.059536748
19	0xbdb6e1a5	-0.08929757
20	0xbcb7b144	-0.022423394
21	0xbd28c231	-0.04120082
22	0x3ccf7cfe	0.025328156
23	0x3d38ea29	0.045145188
24	0xbd994c59	-0.07485265
25	0xbd422092	-0.047394343
26	0x3d5849ff	0.052804943
27	0xbd4d2e9b	-0.050093275
28	0xbc896f62	-0.016776744
29	0x3db1e517	0.086862735
30	0xbd9cdc03	-0.076591514
31	0x3d47efe0	0.048812747
32	0x3d8fe6cc	0.07026443
33	0xbb8cea60	-0.0043004006
34	0x3cdd8a58	0.027043507
35	0x3d4321c9	0.047639642
36	0x3dac45e7	0.0841177
37	0x3d618c6a	0.05506555
38	0xbdafd921	-0.08586336
39	0xbd8987da	-0.06715365
40	0x3cf28a6b	0.029607018
41	0x3c86e727	0.016467644
42	0x3dc0a0c2	0.09405662
43	0xbc853e48	-0.01626505
44	0x3cf8547b	0.03031372
45	0xbd49a7fa	-0.04923246
46	0x3c365658	0.011128984
47	0x3d852a77	0.0650224
48	0xbd712a80	-0.05887842
49	0x3db97e43	0.09057286
50	0xbd2e7053	-0.04258759
51	0xbd2e521e	-0.04255878
52	0x3cb763b9	0.022386419
53	0x3d1859ed	0.037195135
54	0x3db4baad	0.08824668
55	0xbd259595	-0.040425856
56	0x3d01f5a8	0.031728417
57	0xbda13805	-0.07872013
58	0xbbafadb9	-0.0053612855
59	0x3d83e420	0.06439996
60	0x3d330177	0.04370257
61	0x3b85faeb	0.0040887496
62	0x3c82666b	0.015917977
63	0xbd421860	-0.047386527
64	0xbcca2cfc	-0.024679653
65	0x3d9950a7	0.07486086
66	0x3db4d1e0	0.08829093
67	0xbd7fefa5	-0.062484402
68	0xbd639a91	-0.055567328
69	0xbc227a21	-0.009916813
70	0x3c383d3e	0.01124507
71	0xbd39eb28	-0.045390278
72	0x3ddc4c04	0.10756686
73	0x3d029936	0.031884395
74	0xbd8e0266	-0.06934051
75	0x3dd80080	0.1054697
76	0x3d149d89	0.03628305
77	0xbcede3dd	-0.029039318
78	0x3cfe3f86	0.03103615
79	0xbcd60eb9	-0.026130067
80	0xbcbc14c5	-0.022959122
81	0xbd13d670	-0.036093175
82	0xbcdc5b20	-0.02689892
83	0x3daab8f9	0.08336062
84	0xbd3b241d	-0.045688737
85	0x3c987737	0.018611534
86	0x3d31e06d	0.04342692
87	0xbdc32a52	-0.09529556
88	0x3dd48873	0.10377588
89	0xbdaa022d	-0.08301196
90	0x3dad51e3	0.08462884
91	0x3c1bed64	0.009517048
92	0xbccbe8aa	-0.024891216
93	0x3ba7e48a	0.0051236795
94	0xbc82d1c7	-0.01596917
95	0x3d139375	0.036029298
96	0xbd3e41c4	-0.046449438
97	0x3d765d88	0.060147792
98	0x3d6bfa25	0.057611603
99	0xbda16220	-0.07880044
100	0xbc4a38f5	-0.012342681
101	0x3d52d8b8	0.05147621
102	0xbd78e156	-0.060761772
103	0x3dcfea9a	0.101521686
104	0xbd47049f	-0.04858839
105	0xbcd7f23a	-0.02636062
106	0x3d2a512a	0.04158131
107	0x3c83e49b	0.016100219
108	0xbdb7a15c	-0.08966324
109	0x3db57d0f	0.08861744
110	0x3d50a38b	0.050937217
111	0x3d282f7c	0.04106091
112	0xbda92fad	-0.082610466
113	0x3da77a4e	0.08177625
114	0xbcdd63cb	-0.027025124
115	0xbb8d6665	-0.004315185
116	0xbd1e6614	-0.038671568
117	0x3ce8af17	0.028403802
118	0xbc8885b1	-0.016665312
119	0x3dd7ff1f	0.10546707
120	0xbd5912e0	-0.052996516
121	0xbd1ce045	-0.038299818
122	0xbc433205	-0.011913781
123	0x3d0b4fdd	0.03401171
124	0xbc14f580	-0.009091735
125	0x3d14b1d8	0.036302418
126	0xbc9a5b53	-0.018842375
127	0xba858b16	-0.0010188546

Fc2.0.weight f4 [128, 20]
0	0x3d62dbc7	0.055385377
1	0xbd7a43c7	-0.061099794
2	0xbdcb8301	-0.099370964
3	0x3d6b3ede	0.057433
4	0xbe5cb961	-0.21555091
5	0x3ddea7e9	0.1087187
6	0x3d299e75	0.041410882
7	0x3cadeeca	0.021232028
8	0x3e1c4f04	0.15264517
9	0x3e448f12	0.19195202
10	0x3d0e053b	0.034672957
11	0x3df79cb8	0.120904386
12	0x3c36bf23	0.011153969
13	0x3e34cc43	0.17656045
14	0xbe645825	-0.2229925
15	0x3d39d533	0.04536934
16	0xbe1dc116	-0.15405688
17	0xbdb8544f	-0.090004556
18	0x3d1584e8	0.036503702
19	0xbe4fd12d	-0.20294638
20	0x3d1d0863	0.038338076
21	0xbdd089f2	-0.10182561
22	0xbe2b059a	-0.16701356
23	0xbe60bf3c	-0.2194795
24	0x3c55c536	0.013047507
25	0x3c1d5076	0.009601703
26	0xbdaef4c7	-0.08542781
27	0x3d9a9e89	0.075497694
28	0xbdc77b82	-0.09740354
29	0xbe7397a2	-0.23788312
30	0x3c95e2d0	0.01829663
31	0xba994ce5	-0.001169589
32	0xbe02ec61	-0.12785484
33	0xbcb065cc	-0.021532916
34	0x3dac1f17	0.084043674
35	0xbdb425f8	-0.087963045
36	0x3e561e32	0.20909956
37	0x3c11cb4e	0.008898569
38	0x3df6984e	0.120407686
39	0xbded702a	-0.11593659
40	0x3e1898c7	0.1490203
41	0xba8c0bb3	-0.0010684639
42	0xbde895c3	-0.1135669
43	0x3e4f10f8	0.20221317
44	0x3de2b510	0.11069691
45	0x3b3b37b7	0.0028567144
46	0x3d5f4705	0.05451109
47	0x3cbd1286	0.023080122
48	0x3e4456bc	0.19173712
49	0x3d149682	0.036276348
50	0xbb90f46c	-0.0044236686
51	0x3db54d84	0.088526756
52	0xbdb6c1ec	-0.089237064
53	0x3d43f97b	0.047845345
54	0x3e23edf3	0.16008739
55	0x3e0ea57f	0.13930319
56	0x3d1d3af2	0.038386293
57	0xbdbba14a	-0.09161623
58	0xbe2562a0	-0.16150904
59	0x3e5b1df1	0.2139814
60	0xbe4ff766	-0.20309219
61	0xbdca2b51	-0.09871543
62	0x3d6904e4	0.05688943
63	0xbe13c07e	-0.14428899
64	0xbd4cd168	-0.050004393
65	0x3e360b28	0.17777693
66	0x3db64fe3	0.08901956
67	0x3e1ca228	0.15296233
68	0xbe1ba98c	-0.15201396
69	0xbdb58868	-0.08863908
70	0x3e033d54	0.12816364
71	0xbe1120d9	-0.14172687
72	0xbe5d5da0	-0.21617746
73	0x3dd4a82b	0.10383638
74	0xbddff339	-0.10935063
75	0xbe483a22	-0.19553426
76	0x3c951788	0.018199697
77	0xbe3ff40c	-0.1874544
78	0x3e11e301	0.14246751
79	0xbe0a08a1	-0.13479854
80	0xbddfb398	-0.10922927
81	0x3d6fea87	0.058573272
82	0xbe1251b3	-0.14288978
83	0x3e18a905	0.14908226
84	0x3e3584fd	0.17726512
85	0xbe4ed5fd	-0.20198818
86	0x3dc7dbbc	0.09758708
87	0x3e754af3	0.23954372
88	0xbe4de20c	-0.20105761
89	0x3c912205	0.017716417
90	0x3de5d144	0.11221555
91	0x3e22d4e3	0.15901522
92	0xbdecbee1	-0.11559845
93	0xbd7645f9	-0.060125325
94	0x3d80af6a	0.062834576
95	0xbcfdc514	-0.030977763
96	0x3df38ce2	0.11892106
97	0x3e591a03	0.21201329
98	0x3e75ddf8	0.24010456
99	0x3d5bb5ca	0.053640164
100	0xbe54bae6	-0.20774421
101	0xbe0fe64c	-0.14052695
102	0x3ccb23f6	0.024797421
103	0xbd7ebb4f	-0.06219035
104	0xbdbb409a	-0.09143181
105	0x3cb4ff3f	0.022094367
106	0xbdb0ade6	-0.086269185
107	0xbe47e31b	-0.19520228
108	0x3e2e3b4b	0.17014806
109	0xbc94ea78	-0.01817821
110	0x3e168137	0.14697729
111	0x3c4bd99f	0.012442022
112	0x3e3aef7a	0.18255416
113	0xbde538fd	-0.1119251
114	0xbdd26003	-0.10272219
115	0xbd494a7d	-0.049143303
116	0xbe5bc9c6	-0.21463689
117	0xbda8d76c	-0.082442135
118	0xbdcec78a	-0.10096653
119	0x3e235a7b	0.15952484
120	0xbe521762	-0.20516732
121	0xbc56bac5	-0.013106053
122	0xbdd52035	-0.10406534
123	0x3db1b082	0.08676244
124	0x3d41d8c2	0.047325857
125	0xbd9ee561	-0.07758594
126	0xbdf632b0	-0.120213866
127	0x3e694a1d	0.22782178
128	0xbe49447e	-0.19655034
129	0x3e083369	0.13300861
130	0xbdd69a5d	-0.10478661
131	0x3e5caae1	0.2154956
132	0x3e4ebf67	0.20190202
133	0x3dd51cbd	0.10405872
134	0x3d910fc3	0.070830844
135	0xbd526804	-0.05136873
136	0x3df466e4	0.11933687
137	0x3d3dc42b	0.04632966
138	0x3db94a95	0.090474285
139	0x3e0596a1	0.13045742
140	0x3e19437e	0.14967152
141	0xbe463fb0	-0.19360232
142	0x3e4ec3b1	0.20191838
143	0xbe3c8dfc	-0.18413538
144	0x3e1d2bbc	0.15348715
145	0xbe6192c3	-0.22028641
146	0xbe09b1ea	-0.13446775
147	0xbe596645	-0.21230419
148	0xbd1273c4	-0.035754934
149	0xbdf6f884	-0.12059119
150	0xbe316ba6	-0.17326221
151	0xbe009cb5	-0.12559779
152	0x3c9f6890	0.019459039
153	0xbe355763	-0.17709117
154	0x3d94ccca	0.07265623
155	0x3e2f9d5a	0.17149869
156	0x3e6b4da7	0.22978841
157	0xbe611532	-0.21980742
158	0x3e0795d5	0.1324075
159	0xbd96db4f	-0.073660485
160	0xbd2884a1	-0.04114211
161	0x3e33c9d0	0.17557454
162	0xbd3856f9	-0.04500482
163	0xbc98988f	-0.018627433
164	0x3d884b8d	0.06655035
165	0x3e26c6b0	0.16286731
166	0xbe35ddc9	-0.17760386
167	0xbe234aff	-0.15946577
168	0x3d05e557	0.03268942
169	0x3dfeebb2	0.12447299
170	0x3d854c08	0.065086424
171	0xbe09ab5b	-0.13444273
172	0xbcf4469c	-0.029818825
173	0x3dafe729	0.08589012
174	0x3e194e5c	0.14971298
175	0xbde00582	-0.109385505
176	0xbe414d71	-0.18877198
177	0x3b8f577f	0.004374444
178	0xbda42c91	-0.08016313
179	0x3d65f308	0.056139976
180	0x3e150ef4	0.14556485
181	0xbe6bfb7c	-0.23045152
182	0x3c895017	0.016761823
183	0x3d93022c	0.071781486
184	0xbdeab14c	-0.11459598
185	0x3e39fc1e	0.18162581
186	0x3ceee5a7	0.029162241
187	0x3e617651	0.2201779
188	0xbe3e9259	-0.18610515
189	0xbe65f590	-0.22456956
190	0xbe410a06	-0.1885148
191	0x3e5dde59	0.2166685
192	0x3d89b387	0.06723695
193	0x3e46d8d3	0.1941865
194	0xbca95c79	-0.020673977
195	0xbd1b29b4	-0.037881568
196	0xbaae2bab	-0.001328816
197	0xbe0b1f91	-0.1358626
198	0xbe0af931	-0.13571621
199	0xbe03002c	-0.12793034
200	0xbe3616ea	-0.17782179
201	0x3dd2e843	0.10298207
202	0x3dc3360f	0.09531795
203	0x3de1ea07	0.11030965
204	0x3d1f894c	0.038949296
205	0x3e1958ac	0.14975232
206	0xbd0fc613	-0.035101008
207	0x3cb7ea7d	0.02245068
208	0x3e2d7cc7	0.1694213
209	0xbe560b4a	-0.20902744
210	0xbe17598f	-0.14780258
211	0xbd28ae0c	-0.04118161
212	0xbe32ed04	-0.17473227
213	0x3e45d555	0.19319661
214	0x3dd111d5	0.10208479
215	0x3deb40be	0.11486958
216	0x3e03525a	0.12824383
217	0x3e06b3da	0.13154545
218	0x3e1bf815	0.15231355
219	0xbd86c90e	-0.06581317
220	0xbc46e8d7	-0.012140474
221	0x3d6aa52b	0.057286423
222	0x3b2e48a5	0.0026593592
223	0x3dfad248	0.12247139
224	0x3db253a2	0.08707358
225	0xbbd397ed	-0.00645732
226	0xbd29cfbf	-0.041457888
227	0x3dc8fd07	0.09813886
228	0x3de8f6c0	0.11375189
229	0xbe21c4e9	-0.15797772
230	0xbdfa7af7	-0.12230485
231	0xbc709fcb	-0.014686535
232	0xbe063071	-0.13104416
233	0x3e5b3ef3	0.21410732
234	0xbe2db51b	-0.16963618
235	0xbbe0780c	-0.006850248
236	0x3e383c11	0.17991664
237	0x3caf40cc	0.021393202
238	0xbe3a0cda	-0.18168965
239	0x3d31f11e	0.043442838
240	0xbe26fe12	-0.16307858
241	0x3d6f5cc8	0.058438092
242	0xbe10751e	-0.14107177
243	0x3deed53b	0.11661764
244	0x3ce19d68	0.027540877
245	0x3e2fe3a5	0.17176683
246	0x3e10e397	0.14149319
247	0xbe40fe83	-0.18847089
248	0xbe079060	-0.13238668
249	0x3e476c3e	0.19474885
250	0xbdafd09f	-0.08584713
251	0xbdccfc29	-0.10009033
252	0xbe2b94f1	-0.16756035
253	0xbce41917	-0.027843995
254	0xbe3a68d7	-0.18204056
255	0xbd012385	-0.031528015

Fc2.0.bias f4 [128]
0	0x3e43597c	0.19077104
1	0x3e1f21f3	0.15540294
2	0xbde7718b	-0.113009535
3	0xbe03a7a7	-0.12856923
4	0xbdb6599d	-0.08903811
5	0xbc13ea3f	-0.009028017
6	0xbdb1348b	-0.086526
7	0x3dc5eec3	0.09664681
8	0xbbde291b	-0.0067798025
9	0x3be91448	0.0071130134
10	0xbe05e596	-0.13075861
11	0xbc0c4f04	-0.008563761
12	0x3d0e2ead	0.034712482
13	0x3e26fd00	0.1630745
14	0xbdb8e573	-0.09028139
15	0xbdb9d5e4	-0.090739995
16	0x3da39d4b	0.07988986
17	0x3e169861	0.14706565
18	0xbe530fcc	-0.20611495
19	0xbd243fc2	-0.040099867
20	0xbe4e550a	-0.20149627
21	0xbd42db0c	-0.04757218
22	0x3db0e3f8	0.086372316
23	0x3daa92bf	0.08328771
24	0x3e341691	0.17586733
25	0x3e34768c	0.17623347
26	0x3e58c904	0.21170431
27	0xbe3f46a7	-0.18679295
28	0x3e1a3352	0.1505864
29	0x3da112fd	0.0786495
30	0x3e5c40f1	0.21509148
31	0xbe03caf7	-0.12870394
32	0xbd92c0d5	-0.07165686
33	0xbb915399	-0.0044350144
34	0x3d3e5751	0.04646999
35	0xbcdf0a35	-0.027226547
36	0x3e03068a	0.12795463
37	0x3cd68873	0.026188111
38	0x3de4d800	0.11174011
39	0xbd263c57	-0.04058489
40	0x3d642993	0.05570371
41	0xbe4cc4e3	-0.19996981
42	0xbe3bbc4e	-0.18333551
43	0xbdd460b0	-0.10370004
44	0x3e040b11	0.12894846
45	0xbdcc6501	-0.099802025
46	0x3dd108f4	0.10206786
47	0x3daf979f	0.08573841
48	0x3dfc40ad	0.123170234
49	0xbca78cd4	-0.020452894
50	0x3e50eda0	0.20403147
51	0xbe19a8ba	-0.1500577
52	0xbd642de6	-0.055707835
53	0xbe2cad49	-0.16862978
54	0x3e314c3f	0.17314242
55	0x3dfd3fe2	0.123657
56	0x3d2fa66b	0.042883318
57	0x3e3e7f98	0.1860336
58	0x3e4dba41	0.20090581
59	0x3e3fa1b2	0.18714026
60	0x3e22cf1b	0.15899317
61	0x3e1d7439	0.15376367
62	0xbe3c30d2	-0.18377998
63	0x3bf5aded	0.00749754
64	0xbba97d12	-0.0051723802
65	0xbcd69ab8	-0.026196823
66	0x3e34fbd4	0.1767419
67	0xbe284020	-0.16430712
68	0xbdea7fa4	-0.11450127
69	0x3d33ef19	0.043929193
70	0xbd92b45f	-0.07163309
71	0xbdcf4fdd	-0.101226546
72	0xbd362b3f	-0.044474836
73	0x3e5335cd	0.20625992
74	0xbdd71d94	-0.105036885
75	0x3c91ed02	0.01781321
76	0x3d7ddddb	0.061979156
77	0xbe18c1c9	-0.14917673
78	0xbe1ababb	-0.15110295
79	0xbe2f1cce	-0.17100832
80	0x3d47f834	0.04882069
81	0xbdfb1040	-0.12258959
82	0xbe551163	-0.20807414
83	0x3e19bb25	0.15012796
84	0xbe1365c9	-0.14394297
85	0xbd2d42a5	-0.042299885
86	0xbdc72292	-0.09723391
87	0xbb6ea2ca	-0.0036412948
88	0xbe09ba84	-0.13450056
89	0xbd01ebfb	-0.03171919
90	0x3db2ea08	0.08736044
91	0x3dcff965	0.1015499
92	0x3d547db2	0.051877685
93	0xbe3524ee	-0.17689869
94	0xbe3cad1c	-0.18425411
95	0x3e5ce862	0.21573022
96	0xbc9d13c9	-0.019174473
97	0xbcabc099	-0.020965861
98	0xbd1557b7	-0.036460605
99	0xbde87b39	-0.11351628
100	0x3ba07223	0.0048964187
101	0x3bca7881	0.006178916
102	0x3e43b9e0	0.19113874
103	0x39ce978c	0.00039404293
104	0xbde01e29	-0.109432526
105	0xbe1c72a9	-0.15278114
106	0xbdad5d66	-0.0846508
107	0xbd4578ad	-0.04821079
108	0xbd852e82	-0.06503011
109	0xbd876d81	-0.06612683
110	0x3d80b62f	0.06284749
111	0xbe249d6a	-0.16075674
112	0xbb11e539	-0.0022261871
113	0x3d3b684b	0.04575376
114	0x3b19e697	0.002348339
115	0x3d52bef6	0.051451646
116	0x3df2c3d8	0.118537605
117	0xbe14a987	-0.14517795
118	0x3cfbd2df	0.0307402
119	0x3dffed1b	0.12496396
120	0xbe12db25	-0.1434141
121	0xbcc3ff8f	-0.02392557
122	0xbe134073	-0.14380054
123	0x3ddf68e4	0.10908678
124	0xbd30e8b5	-0.043190677
125	0xbe44f5f3	-0.19234447
126	0xbe09bb4b	-0.13450353
127	0x3e160564	0.14650494

Fc3.0.weight f4 [128, 5]
0	0xbebc960b	-0.36833224
1	0xbe884015	-0.2661139
2	0x3c69c5d2	0.014268355
3	0xbb18d96b	-0.002332295
4	0xbc516ebd	-0.01278275
5	0xbe9d7a5b	-0.30757412
6	0xbecc78e6	-0.39935988
7	0xbe4227c6	-0.18960485
8	0xbe492dd6	-0.19646391
9	0xbeaf54f7	-0.3424451
10	0xbdd4f90c	-0.103990644
11	0xbcddce9f	-0.027076064
12	0x3e984389	0.29739025
13	0xbe54ff62	-0.20800546
14	0x3d6cb843	0.057792913
15	0xbe1c629f	-0.15271996
16	0x3dfcae6f	0.12337958
17	0x3e28d657	0.16488014
18	0x3d1e8009	0.038696323
19	0xbebcb1ce	-0.36854404
20	0xbe8d66f9	-0.27617624
21	0xbe904c3f	-0.2818317
22	0x3e3a4a02	0.18192294
23	0xbe10d976	-0.14145455
24	0x3e0cf979	0.13767041
25	0xbe75edac	-0.24016446
26	0xbd85dde7	-0.06536465
27	0x3ebb8aef	0.36629435
28	0x3e9d1763	0.30681905
29	0x3ddf4408	0.10901648
30	0xbd8d509c	-0.06900141
31	0xbde34383	-0.11096861
32	0x3ebd7309	0.37001827
33	0xbe70fb82	-0.23533443
34	0x3e4fc083	0.20288281
35	0x3d3e2193	0.046418738
36	0xbc8b5fa9	-0.017013388
37	0x3db48e7c	0.08816239
38	0xbdf9adaf	-0.12191331
39	0x3d5126a3	0.051062237
40	0x3e257bc9	0.16160502
41	0xbe9466ca	-0.28984672
42	0x3eb1deb9	0.34740236
43	0x3e2e0a4d	0.16996117
44	0x3afaee1f	0.0019144452
45	0xbe7f2dc4	-0.24919802
46	0xbe864dbd	-0.26231185
47	0x3b2ce0ae	0.0026379037
48	0x3e541e22	0.2071462
49	0x3ed5ae26	0.41734427
50	0x3e9e0c4c	0.30868757
51	0xbe612a51	-0.21988799
52	0x3ec26b0f	0.37972304
53	0x3e928a7f	0.2862129
54	0xbd9bb07f	-0.07602023
55	0x3ec4db91	0.38448766
56	0xbe72076b	-0.23635642
57	0xbe74480a	-0.23855606
58	0x3e0e9efa	0.13927832
59	0x3e1df7c7	0.15426551
60	0x3e1999a7	0.1500002
61	0xbe8966c8	-0.26836228
62	0x3e08cf2a	0.13360277
63	0x3dbc5ee6	0.09197788
64	0xbe9b9b83	-0.30392084
65	0xbec5c849	-0.38629368
66	0x3e8e2e17	0.2776954
67	0xbd15a2b4	-0.03653212
68	0xbe78b3da	-0.24287358
69	0xbd884016	-0.066528484
70	0xbd2c1612	-0.042013235
71	0x3a403a89	0.0007332941
72	0x3eb499dd	0.35273638
73	0x3d45216b	0.048127573
74	0x3d76a8cd	0.060219575
75	0xbd98d44a	-0.07462366
76	0x3e486f6e	0.19573757
77	0x3d1905b9	0.037358973
78	0xbc2ced9b	-0.010554696
79	0xbe803e21	-0.250474
80	0x3ed09422	0.40738016
81	0xbd742519	-0.05960569
82	0x3d9320bc	0.07183978
83	0xbe78f545	-0.24312313
84	0x3e240ce4	0.16020542
85	0xbec65770	-0.38738585
86	0xbe273ca8	-0.16331732
87	0x3d4824ff	0.048863407
88	0x3daf1629	0.085491486
89	0xbec74d64	-0.38926232
90	0xbddb2507	-0.10700422
91	0xbdb32223	-0.087467454
92	0xbecb6845	-0.3972799
93	0xbece2a10	-0.40266466
94	0x3ebcfea2	0.3691302
95	0xbee7f45e	-0.45303625
96	0xbec557e6	-0.38543624
97	0x3eb3d9b2	0.35127026
98	0xbd72e786	-0.05930283
99	0x3e93f435	0.28897253
100	0x3ee4f5be	0.44718736
101	0xbeb3979a	-0.350766
102	0xbe94cd7e	-0.29063028
103	0x3e6ebbd5	0.2331384
104	0x3e38f598	0.18062437
105	0x3ec6f346	0.38857478
106	0xbeb097a3	-0.3449069
107	0xbe3c5013	-0.18389921
108	0xbe824bec	-0.2544855
109	0x3ed71c08	0.42013574
110	0x3e8db574	0.276775
111	0x3e2c2f1a	0.16814843
112	0x3e1d3074	0.15350515
113	0x3e8eeb40	0.27913857
114	0xbe297975	-0.16550238
115	0xbe93a0aa	-0.28833514
116	0x3e683ebb	0.2268018
117	0x3eab7ba2	0.33492762
118	0xbc255109	-0.010090121
119	0xbe916b4c	-0.28402174
120	0xbe72a24d	-0.23694725
121	0xbe682693	-0.22670965
122	0x3d670aab	0.05640666
123	0x3eabc242	0.33546644
124	0x3e57f2c9	0.21088709
125	0x3e314d4e	0.17314646
126	0x3eac7624	0.33683884
127	0xbec24446	-0.37942713
128	0x3ce82367	0.028337194
129	0x3e1258c6	0.14291677
130	0xbdb0ab61	-0.08626438
131	0xbd94bcba	-0.07262559
132	0xbc75801a	-0.014984155
133	0xbe2ce9b3	-0.16886024
134	0xbe26e872	-0.16299608
135	0x3ea9ab13	0.33138332
136	0xbd91f9d3	-0.07127728
137	0x3e249ad4	0.16074687
138	0xbea82679	-0.32841852
139	0x3e043859	0.1291212
140	0xbe7a5ac5	-0.24448688
141	0xbe859b52	-0.26095062
142	0xbe92f06f	-0.2869906
143	0xbe9ed196	-0.31019276
144	0xbe921552	-0.2853189
145	0x3ebb11f3	0.36537132
146	0xbe819cb5	-0.2531487
147	0x3dbb58ac	0.09147772
148	0x3dc09574	0.09403506
149	0x3e095eec	0.13415116
150	0x3da8c254	0.0824019
151	0x3e97e29f	0.29665086
152	0x3ecc651c	0.3992089
153	0xbece889d	-0.40338603
154	0x3ec40630	0.3828597
155	0x3dbb26b9	0.09138245
156	0xbd1c5868	-0.03817025
157	0x3e9aaa90	0.30208254
158	0xbd634937	-0.055489745
159	0x3e3a8088	0.18213093
160	0x3c45256e	0.01203285
161	0x3e07f28f	0.13276123
162	0x3eaf68ec	0.34259737
163	0xbae02025	-0.0017099424
164	0x3e7c463e	0.2463617
165	0xbdfa60aa	-0.122254685
166	0xbdc1c20f	-0.09460842
167	0xbebf9bef	-0.37423655
168	0xbe01732f	-0.12641595
169	0x3e07cab9	0.13260926
170	0x3e60a370	0.21937346
171	0xbe865f48	-0.2624457
172	0x3e726a06	0.23673257
173	0x3db6407b	0.088990174
174	0xbdb6c05d	-0.08923409
175	0xbdd25a3b	-0.10271116
176	0xbed7a6c5	-0.42119423
177	0x3e034725	0.12820108
178	0xbec4be35	-0.38426366
179	0x3dca2dea	0.09872039
180	0xbea55e9d	-0.32298747
181	0x3e93ec21	0.2889109
182	0x3e61cc89	0.2205068
183	0x3ea9300d	0.33044472
184	0x3edb69f4	0.42854273
185	0xbe310d7a	-0.17290297
186	0xbe644cfa	-0.22294989
187	0x3c1506bb	0.009095843
188	0x3cbaf894	0.02282361
189	0xbd623191	-0.05522305
190	0xbdec76c4	-0.1154609
191	0xbe9cecea	-0.306495
192	0x3ec36165	0.38160244
193	0x3d92ae8d	0.07162199
194	0xbd43ecc8	-0.047833234
195	0x3eb9ed62	0.3631392
196	0x3ddb6105	0.107118644
197	0xbebd96ab	-0.37029013
198	0x3e62c44e	0.22145197
199	0x3dac80ec	0.084230274
200	0x3ed40041	0.41406444
201	0xbe1ff4f5	-0.15620787
202	0xbe983ecf	-0.2973542
203	0xbdca3acc	-0.09874496
204	0xbe2cdc8a	-0.16881004
205	0x3eb9cfc2	0.3629132
206	0xbeace0ad	-0.33765164
207	0xbe65af6f	-0.22430204
208	0x3eae9582	0.3409844
209	0x3dcd5bc3	0.10027268
210	0x3e6f0a52	0.2334378
211	0xbd915d73	-0.07097902
212	0xbe16608c	-0.14685267
213	0x3e356474	0.17714101
214	0x3d691c97	0.05691203
215	0x3e69e242	0.22840217
216	0xbe53d83f	-0.2068796
217	0x3e1467d0	0.14492726
218	0x3ec067a6	0.37579077
219	0xbed9b37f	-0.42519757
220	0xbee13941	-0.43988994
221	0x3e45ef0f	0.19329475
222	0x3dd1169a	0.10209389
223	0xbe676a7c	-0.22599214
224	0xbe9d7eb5	-0.30760732
225	0xbe74966d	-0.23885508
226	0xbdec479d	-0.11537097
227	0x3d02f37c	0.031970486
228	0xbe0312b2	-0.128001
229	0x3ea7f98a	0.3280757
230	0x3ebdf795	0.37102953
231	0xbd7643b0	-0.060123146
232	0x3eac1429	0.3360913
233	0x3e109adf	0.14121579
234	0xbeb5e9b7	-0.35529873
235	0x3da0cc3b	0.07851454
236	0xbe31222d	-0.17298193
237	0x3dfd87c8	0.12379414
238	0x3e037bb1	0.12840153
239	0xbcf17b29	-0.029477673
240	0xbee87098	-0.45398402
241	0x3ad32e36	0.0016111794
242	0xbee023af	-0.43777224
243	0x3cfab42a	0.030603487
244	0x3eaaa44d	0.33328477
245	0x3e571790	0.21005082
246	0xbda83988	-0.08214098
247	0xbccd082f	-0.025028316
248	0xbd3d98c1	-0.046288256
249	0xbdb860ef	-0.090028636
250	0xbe9ab4da	-0.30216104
251	0xbeb4dbba	-0.35323888
252	0x3ebf3a72	0.37349278
253	0x3cfa60b7	0.030563695
254	0xbec3b2a1	-0.3822222
255	0x3ee26218	0.44215465

Fc3.0.bias f4 [128]
0	0xbe82c0bc	-0.2553767
1	0xbe60dc04	-0.2195893
2	0x3e973310	0.29531145
3	0x3d4f536f	0.050616678
4	0x3ebd4983	0.36970147
5	0x3d51f482	0.05125857
6	0x3db5a7ac	0.088698715
7	0x3e801c86	0.25021762
8	0x3e18bf94	0.14916831
9	0xbde11a20	-0.10991311
10	0x3e883fee	0.26611274
11	0x3eaf303e	0.34216493
12	0xbea20aa3	-0.3164874
13	0x3ec1e252	0.3786798
14	0x3e895a5b	0.26826748
15	0xbe972f15	-0.29528108
16	0xbe64e088	-0.22351277
17	0xbebc3e04	-0.36766064
18	0x3ec9b6b9	0.3939722
19	0xbddfa652	-0.10920395
20	0xbed11027	-0.40832636
21	0x3ea6503e	0.32483095
22	0xbe71d8d7	-0.23617874
23	0x3dbcc219	0.09216709
24	0xbcebad65	-0.028769204
25	0xbe449e6e	-0.19201061
26	0x3abbfc07	0.0014342078
27	0x3e46224c	0.1934902
28	0xbdd3164e	-0.10306989
29	0x3ccee333	0.025254821
30	0xbe8ded7c	-0.2772025
31	0xbec50778	-0.3848226
32	0x3ce7e943	0.02830947
33	0x3ea7763a	0.32707387
34	0x3e937409	0.28799465
35	0x3e8a885a	0.27057153
36	0x3ea65ddd	0.32493487
37	0xbe1b5aa7	-0.151713
38	0xbe270b53	-0.16312914
39	0x3eda5eee	0.4265055
40	0xbeb7c69c	-0.35893714
41	0x3eda82d4	0.4267794
42	0x3e900656	0.28129834
43	0xbe361b12	-0.17783764
44	0x3eedd2d4	0.46449912
45	0xbe3f8364	-0.18702465
46	0xbcc52d92	-0.024069581
47	0xbedd6aa4	-0.43245423
48	0xbe475e29	-0.19469513
49	0xbc3c7c88	-0.0115043
50	0xbe140b4d	-0.14457436
51	0x3d81f73c	0.06345984
52	0x3ebf0213	0.3730627
53	0x3ed80b71	0.4219623
54	0xbed10623	-0.40824994
55	0x3e92b14d	0.28650895
56	0xbe173a99	-0.14768447
57	0x3ebefe30	0.37303305
58	0xbebd880f	-0.37017867
59	0x3e11f773	0.1425455
60	0xbd0c9743	-0.034323942
61	0x3d277961	0.04088724
62	0xbe29e69d	-0.16591878
63	0x3ebaccd1	0.36484388
64	0x3e1f9b04	0.15586478
65	0xbe554d3a	-0.20830241
66	0xbd908ed1	-0.0705849
67	0x3ecb860e	0.39750713
68	0xbd800f6e	-0.06252943
69	0x3d8b75e2	0.06809594
70	0x3eafb98c	0.3432125
71	0xbecc8747	-0.39946958
72	0xbecd7686	-0.4012949
73	0x3db59379	0.08866019
74	0xbe9e1a21	-0.3087931
75	0x3ec0607e	0.37573618
76	0xbcfddfc5	-0.03099049
77	0xbec9c0eb	-0.39404997
78	0xbe7c27bc	-0.24624532
79	0x3ec418a3	0.38300046
80	0x3d0264c2	0.03183437
81	0xbe3bff52	-0.18359116
82	0xbe00f4d3	-0.12593393
83	0x3eab6fbf	0.33483693
84	0xbc57c958	-0.013170563
85	0xbecd7186	-0.40125674
86	0x3e875f0f	0.2643971
87	0xbe1e7563	-0.15474467
88	0xbeca65c0	-0.39530754
89	0xbea758b3	-0.3268486
90	0x3e3634ba	0.17793551
91	0xbdc6b34d	-0.09702168
92	0x3db7634b	0.089544855
93	0xbe9572b1	-0.29189065
94	0xbe73421a	-0.23755684
95	0x3cc72eec	0.024314366
96	0x3e25fe74	0.16210347
97	0x3ea5ed2a	0.32407504
98	0xbcd07cb0	-0.02545008
99	0x3d0b4030	0.03399676
100	0xbeb03c47	-0.34420988
101	0xbec2ba3a	-0.38032705
102	0x3dfc0dce	0.123073205
103	0x3e1e54ae	0.1546199
104	0xbe9f4b0b	-0.3111194
105	0xbe518bc6	-0.20463476
106	0x3d35221b	0.04422198
107	0xbeae8454	-0.34085333
108	0x3ec97d9a	0.3935364
109	0xbddbdb24	-0.10735157
110	0xbdcc03a6	-0.099616334
111	0xbc0536f5	-0.008130779
112	0x3e4352c3	0.1907454
113	0xbeca7c04	-0.3954774
114	0xbe9057fd	-0.2819213
115	0x3e056bee	0.13029453
116	0x3e9ffc98	0.312474
117	0x3eb32649	0.34990147
118	0x3ec24452	0.3794275
119	0xbde5db6a	-0.112234905
120	0xbd4d4f9f	-0.05012476
121	0x3cf54f9c	0.029945187
122	0x3e510e6e	0.2041566
123	0xbc1b18ae	-0.009466333
124	0x3daa0af8	0.083028734
125	0xbe00cfd5	-0.12579282
126	0xbe87f221	-0.26551917
127	0xbca6735c	-0.02031868

fc_concat.0.weight f4 [1, 384]
0	0x3d84e371	0.064886935
1	0xbcfc192b	-0.03077372
2	0x3c1f65e4	0.009728882
3	0xbd0a31ae	-0.033738784
4	0x3d654c7d	0.055981148
5	0x3d7a1358	0.061053604
6	0x3d778e39	0.06043837
7	0x3d16f8e4	0.036858454
8	0xbcc0e326	-0.023545813
9	0xbd08bc3e	-0.033382647
10	0xbd1c7b2c	-0.038203403
11	0xbc2af494	-0.0104342885
12	0x3d2b4703	0.04181577
13	0x3d2b5f0d	0.041838694
14	0x3c4f2116	0.012642166
15	0x3bfad7e6	0.0076551316
16	0x3bd02d9a	0.0063530924
17	0x3d39e583	0.045384895
18	0x3cd2af44	0.025718339
19	0x3cfc8183	0.030823475
20	0x3cbee668	0.023303226
21	0xbc21b657	-0.009870133
22	0xbbf0e8de	-0.0073519787
23	0xbc3c2973	-0.011484492
24	0xbbc31515	-0.005953441
25	0xbb8e2b28	-0.0043386407
26	0x3d5003b4	0.05078478
27	0x3c05e920	0.008173257
28	0xbca991f8	-0.020699486
29	0xbd109871	-0.03530163
30	0x3d0d59af	0.034509357
31	0xbcff2dcb	-0.031149765
32	0x3d5558d0	0.05208665
33	0x3cc98171	0.024597855
34	0x3c18b41d	0.009320286
35	0x3d0764bd	0.033055056
36	0x3d26a9a8	0.04068914
37	0x3cbe36a2	0.02321941
38	0xbcfc0929	-0.030766087
39	0xbd22420c	-0.03961377
40	0x3d34b353	0.04411633
41	0xbc95e634	-0.018298246
42	0xbcc7a66b	-0.024371346
43	0xbd08b079	-0.033371422
44	0x3d5a5cac	0.053311035
45	0xbc4c8cab	-0.01248471
46	0x3c0dca5f	0.008654206
47	0xbd3481b3	-0.044069003
48	0xbc9a9a59	-0.018872427
49	0xbca7d76c	-0.020488463
50	0xbbc53547	-0.006018314
51	0x3d066f70	0.03282112
52	0xbd2a31e6	-0.041551493
53	0x3a8f36a8	0.0010926323
54	0x3d1bfa62	0.03808058
55	0xbd5a9c74	-0.05337186
56	0x388cbad5	6.7105204e-05
57	0x3c03bceb	0.008040647
58	0xbcdf7ca1	-0.027281107
59	0x3cdef94b	0.027218482
60	0xbcd511ca	-0.026009459
61	0xbcf3e2ba	-0.029771198
62	0xbd166429	-0.036716614
63	0xbcdd7ef4	-0.027038075
64	0xbcf12e83	-0.029441124
65	0x3c8b7a00	0.017025948
66	0x3c51c043	0.012802186
67	0xbbb9fd83	-0.005675973
68	0x3d809621	0.06278635
69	0xbcea7a68	-0.028622821
70	0x3bb07478	0.005384978
71	0x3c850b12	0.01624063
72	0x3b8282d0	0.003982879
73	0x3c2bbc5a	0.010481918
74	0x3c281a19	0.010260128
75	0x3b9aeca4	0.004727917
76	0x3d2b3108	0.041794807
77	0x3d5fc2c4	0.054629102
78	0xbc8004f9	-0.015627371
79	0x3cccfdb2	0.025023315
80	0x3c34d33c	0.01103669
81	0x3bf1178d	0.007357544
82	0xbcb50b03	-0.022099977
83	0xbd3a4453	-0.045475315
84	0x3d21a4d8	0.039463848
85	0xbc697fb8	-0.014251642
86	0x3c0afdf7	0.0084834015
87	0x3d71afde	0.05900561
88	0xbc5575d8	-0.013028584
89	0x3cce54f7	0.025186999
90	0x3d619c53	0.055080723
91	0x3ca07adf	0.01958984
92	0xbcdfe455	-0.027330557
93	0x3c8143e6	0.015779447
94	0x3ce560d5	0.028000275
95	0x3cd7eba5	0.026357481
96	0x3d35b8d9	0.044365738
97	0xbbc62ff2	-0.006048196
98	0x3c85336a	0.016259868
99	0x3d2f9007	0.042861965
100	0xbc4cc5ed	-0.012498361
101	0x3a2e2fdd	0.00066447054
102	0x3d87d7ca	0.06632955
103	0xbd06b48e	-0.032887034
104	0xbd13ee2c	-0.03611581
105	0x3c2dd8a1	0.01061073
106	0xbcccd6b0	-0.025004715
107	0xbcc63dfc	-0.024199478
108	0x392e02fd	0.00016595046
109	0x3d269be3	0.04067601
110	0x3d4ee958	0.050515503
111	0xbcfdf210	-0.030999213
112	0xbd56c7d9	-0.052436683
113	0x3b266147	0.0025387572
114	0x3cdcc240	0.026948094
115	0x3c160cbd	0.0091583105
116	0xbbbb7cc4	-0.0057216603
117	0x3baf6a4c	0.0053532477
118	0x3d1922d8	0.037386745
119	0xbb7b94d3	-0.0038388267
120	0x3c9576ef	0.018245189
121	0xbbf5db90	-0.0075029805
122	0xbd0ed8c6	-0.0348747
123	0xbb935657	-0.0044963765
124	0xbd04ccff	-0.032422062
125	0xbcbb0efe	-0.022834297
126	0xbc556871	-0.013025389
127	0x3d3fac0b	0.046794932
128	0xbd2ff1cc	-0.042955205
129	0xbd053e02	-0.03252984
130	0xbcb36e0d	-0.021903062
131	0xbd18e3cb	-0.037326615
132	0xbbd2670b	-0.006420975
133	0x3ca14f1d	0.019691044
134	0x3cce62e6	0.025193643
135	0x3b41b296	0.0029555908
136	0x3c7efc82	0.015563132
137	0xbb7d87f5	-0.0038685773
138	0xbc2203cd	-0.0098886015
139	0x3cf58371	0.029969903
140	0x3d4e3d18	0.050351232
141	0x3cd05cd2	0.025434885
142	0x3ce041eb	0.027375182
143	0x3d71704f	0.058944996
144	0xbd0c526c	-0.03425829
145	0xbca8a40e	-0.02058604
146	0xbc813785	-0.015773544
147	0xbb93c751	-0.0045098444
148	0xbd04291e	-0.032265775
149	0x3a92f00a	0.0011210453
150	0x3cba81d2	0.022766981
151	0xbb073132	-0.0020628688
152	0xbc51d4cf	-0.012807085
153	0xbc9211c5	-0.017830739
154	0xbc45cfc3	-0.01207346
155	0x3b0e65f7	0.0021728256
156	0xbbe28f41	-0.00691405
157	0x3d03e94c	0.03220491
158	0x3bf287ce	0.007401443
159	0xbbc783e6	-0.0060887216
160	0x3a985230	0.0011621173
161	0xb90080d4	-0.00012255023
162	0xbcceef79	-0.025260674
163	0x39276965	0.00015965624
164	0x3b47c538	0.0030482542
165	0x3d1d554d	0.038411427
166	0x3bb334fc	0.0054689627
167	0xbc0dfd33	-0.008666324
168	0xbc4b56e3	-0.012410852
169	0xbcbe557c	-0.023234122
170	0x3d3dc898	0.04633388
171	0x3cc214c6	0.023691546
172	0x3d02102d	0.031753708
173	0x3cef1cb6	0.029188495
174	0x3c8e8d6a	0.017401416
175	0xbc0932e0	-0.008373946
176	0x3b832746	0.0040024845
177	0x3cbe8f0e	0.023261573
178	0xbcf32e74	-0.029685237
179	0x3d23f7e9	0.040031347
180	0x3d177f5a	0.036986686
181	0x3b8eeb02	0.004361511
182	0x3cf979aa	0.030453522
183	0xbcba87ec	-0.02276989
184	0xbc3f7a2f	-0.011686846
185	0x3d101971	0.035180513
186	0xba5b1405	-0.000835717
187	0x3b2237ee	0.0024752575
188	0x3bdee585	0.006802263
189	0xbd103dd0	-0.0352152
190	0x3b008a2f	0.0019613614
191	0xbd0372f8	-0.032092065
192	0x3ca65b87	0.020307316
193	0x3d4ab44b	0.049488347
194	0x3d085dfb	0.03329275
195	0x3c49ff38	0.012328915
196	0xbc648930	-0.013948724
197	0x3ce4e480	0.027940989
198	0x3d1dd38c	0.038531825
199	0x3c8d7007	0.017265333
200	0x3d22093d	0.03955959
201	0xbc0c8d57	-0.00857862
202	0xbce62ded	-0.028098071
203	0x3ca6b445	0.020349631
204	0x3d449986	0.047997974
205	0x3b2b1618	0.0026105698
206	0x3bdf5542	0.0068155834
207	0xbcb57236	-0.022149187
208	0x3ca16b63	0.019704526
209	0xbb8e9591	-0.004351326
210	0xba5956ee	-0.00082908466
211	0x3d48e071	0.04904217
212	0xbd11715a	-0.03550849
213	0xbc979b1f	-0.018506585
214	0xbcb5724a	-0.022149224
215	0x3c992868	0.018696025
216	0x3d2c4e79	0.042067025
217	0xbbea2203	-0.007145168
218	0x3d1896d0	0.0372532
219	0xbc21d781	-0.00987804
220	0xbd074ec3	-0.033034097
221	0x3d263f7c	0.040587887
222	0x3c4d7592	0.012540238
223	0xbce9b62c	-0.02852925
224	0xbb98275a	-0.004643363
225	0x3cab5069	0.020912366
226	0x3cd3c1f1	0.025849314
227	0xbc949ad6	-0.018140238
228	0x3d16058a	0.036626376
229	0xbb280a8b	-0.002564105
230	0x3ca90d9c	0.020636372
231	0x3d33baba	0.04387925
232	0xbcd012ab	-0.025399527
233	0x3d31506a	0.04328958
234	0xbc668b09	-0.0140712345
235	0x3b7d2785	0.0038628292
236	0xbb803368	-0.003912378
237	0x3c9cb423	0.019128865
238	0x3cd9ba23	0.026578015
239	0x3c041aea	0.008063057
240	0xbcbd282c	-0.023090445
241	0x3d358f78	0.044326276
242	0xbce5e887	-0.02806498
243	0x3b867b8d	0.004104084
244	0x3cbc8dfc	0.023016922
245	0x3cd544a5	0.026033709
246	0x3d156b91	0.036479536
247	0x3d252315	0.04031666
248	0xbc05d28b	-0.008167873
249	0xbc38bbcb	-0.011275242
250	0xbcf8d8c8	-0.030376807
251	0x3cc96f31	0.024589153
252	0x3c431ab2	0.01190822
253	0xbc268ad9	-0.01016494
254	0x3cda90b8	0.026680335
255	0x3ce745e2	0.028231565
