DSLL/lpm_model_lambda_v1_2.pth (torch, 70255 bytes, 7 tensors)

Fc1.0.weight f4 [128, 100]
0	0xbc43604f	-0.011924817
1	0xbd100e38	-0.03516981
2	0xbcd9f368	-0.026605323
3	0xbd3d7e7d	-0.046263207
4	0xbd8a4312	-0.06751074
5	0x3d36bf60	0.044616103
6	0x3d0749d2	0.033029385
7	0x3d894c10	0.06703961
8	0x3d921d97	0.0713455
9	0xbcbda81e	-0.023151454
10	0xbd84b83e	-0.06480454
11	0xbd3593c4	-0.044330373
12	0x3d62d4a6	0.05537858
13	0xbcb14511	-0.021639379
14	0xbccc31ec	-0.024926148
15	0x3b3ba810	0.0028634109
16	0xbd8f9717	-0.0701124
17	0xbc8bd878	-0.017070994
18	0xbd80adb9	-0.06283135
19	0x3d8097b8	0.06278938
20	0x3d10ddc5	0.035367746
21	0x3cae3ecc	0.021270178
22	0xbb52c11b	-0.0032158557
23	0xbd8ea084	-0.0696421
24	0xbd8f3566	-0.06992607
25	0x3d904047	0.0704351
26	0xbd928658	-0.0715453
27	0xbcfe7b57	-0.031064672
28	0x3d8a6295	0.06757084
29	0xbd496205	-0.049165744
30	0xbc57215f	-0.013130515
31	0x3d0e0eec	0.0346822
32	0xbc01fe37	-0.007934145
33	0x3d56a72a	0.052405514
34	0x3d816182	0.06317426
35	0x3ce69dbc	0.028151385
36	0xbd51bca4	-0.051205292
37	0xbd3e8c20	-0.046520352
38	0xbd2d2145	-0.042268056
39	0x3d87bcee	0.06627832
40	0x3d3a58a7	0.0454947
41	0x3d908ea2	0.07058455
42	0xbc8f088c	-0.01746013
43	0xbd8fa57f	-0.07013988
44	0x3d5df793	0.054191183
45	0xbd5bb232	-0.053636737
46	0xbb755381	-0.0037433805
47	0xbc1d72d9	-0.009609901
48	0x3a9657d7	0.001147027
49	0x3cbbc60a	0.02292158
50	0xbd756e7e	-0.059919827
51	0xbd865522	-0.065592065
52	0xbc5df250	-0.013546541
53	0x3cf74e55	0.030188719
54	0x3c8b2b69	0.016988473
55	0x3d5899ac	0.052880928
56	0xbd7fabfd	-0.06241988
57	0xbd420f70	-0.047378004
58	0xbd1a88f7	-0.037728276
59	0x3d3cfd55	0.046140034
60	0xbcea2053	-0.028579867
61	0xbcc3d5c1	-0.023905637
62	0xbc22830b	-0.009918938
63	0x3d8f75c7	0.07004886
64	0x3cefb5ec	0.029261552
65	0xbcdf160b	-0.02723219
66	0x3d48a4f6	0.048985444
67	0x3cdcf623	0.026972836
68	0xbd22b9af	-0.039727863
69	0xbc09bd77	-0.008406988
70	0x3d03c819	0.03217325
71	0x3cd0d412	0.025491748
72	0xbd7b38a0	-0.0613333
73	0xbce45131	-0.027870746
74	0xbc7f37a6	-0.015577232
75	0x3c6c8c41	0.014437736
76	0xbce9db78	-0.028547034
77	0xbce83da4	-0.028349705
78	0x3d25639e	0.040378205
79	0xbd0a9eb0	-0.033842742
80	0x3d8ad67e	0.067791924
81	0xbcc5f921	-0.024166645
82	0x3b42b8c3	0.0029712177
83	0xbd7f131e	-0.06227409
84	0x3c512206	0.0127644595
85	0x3d1fea93	0.039042067
86	0xbd7fa387	-0.06241181
87	0xbd83ca51	-0.06435073
88	0xbd1ad65c	-0.037802085
89	0x3d908162	0.07055928
90	0xbd76a1c7	-0.060212877
91	0x3d3e71b9	0.046495173
92	0xbbc549fb	-0.006020782
93	0x3c787c19	0.015166306
94	0xbd30ae91	-0.04313523
95	0xbd6cbe1f	-0.0577985
96	0xb7d3afe4	-2.5235066e-05
97	0x3b66c24a	0.003521102
98	0xbb571c3f	-0.0032823232
99	0x3d84c4c8	0.064828455
100	0xbd621488	-0.05519536
101	0x3c18fc2a	0.009337464
102	0x3c7f02a5	0.015564595
103	0xbca301c1	-0.019898297
104	0xbd6e8495	-0.05823191
105	0x3d2ea68b	0.042639297
106	0x3d92b1fb	0.07162853
107	0xbd093897	-0.033501234
108	0x3d5f3fc8	0.054504186
109	0xbcdc6000	-0.026901245
110	0x3d32cdc9	0.043653283
111	0x3d6b3ace	0.057429127
112	0x3d0de21b	0.03463946
113	0x3d75fe64	0.06005706
114	0xbd44010d	-0.047852565
115	0xbcd6999e	-0.026196297
116	0x3a474e6f	0.0007602935
117	0xbd717e5b	-0.058958393
118	0x3c7ddbe6	0.015494322
119	0xbd1bc93c	-0.03803371
120	0xbc8f8e01	-0.017523767
121	0x3c67b12b	0.014141361
122	0xbd858e9b	-0.065213405
123	0xbc286fda	-0.010280574
124	0xbcd58825	-0.026065895
125	0x3ca2370b	0.019801637
126	0xbc9faf6e	-0.019492831
127	0x3c7e6550	0.0155270845
128	0x3d7a2801	0.061073307
129	0xbd4013a6	-0.04689374
130	0xbd305978	-0.043054074
131	0xbcb359ae	-0.021893349
132	0xbd8190ae	-0.063264236
133	0x3d4f37a3	0.05059017
134	0x3d494bbe	0.0491445
135	0xbcb07443	-0.021539813
136	0xbd269d2c	-0.040677235
137	0x3d8cde62	0.06878354
138	0xbb2f7fed	-0.002677913
139	0xbd7a7cda	-0.061154224
140	0xbd795970	-0.06087631
141	0xbc1bf99f	-0.0095199635
142	0x3d696c65	0.05698814
143	0x3d6e81cf	0.058229264
144	0xbd5dfd7e	-0.054196827
145	0x3c48bffe	0.012252806
146	0x3d8012d3	0.062535904
147	0xbd3cd7cc	-0.046104237
148	0xbd4cc02c	-0.049987957
149	0xbd05689a	-0.03257046
150	0xbc976eb4	-0.018485405
151	0xbc84f8c6	-0.016231906
152	0x3cca59a9	0.024700956
153	0x3c17f946	0.00927574
154	0xbc7a5400	-0.015278816
155	0xbd6d016c	-0.057862684
156	0xbce1a83c	-0.02754604
157	0x3c82b08d	0.015953327
158	0xbd8ec695	-0.0697147
159	0xbc688466	-0.0141917225
160	0xbcc1494e	-0.023594525
161	0x3d54c2b2	0.05194349
162	0x3aeb16e5	0.00179359
163	0x3d63fa1a	0.055658437
164	0xbc4d02af	-0.012512847
165	0x3d93099a	0.07179566
166	0xbc0526b4	-0.008126903
167	0x3d335a33	0.043787193
168	0xbd1817b5	-0.037131984
169	0x3d25bfa4	0.040465966
170	0x3c5f4df5	0.013629426
171	0xbd78554a	-0.060628213
172	0xbd929950	-0.07158148
173	0xbd1ebaa0	-0.0387522
174	0xbd4da1a2	-0.050202973
175	0xbcd92f31	-0.02651176
176	0xbcae8414	-0.021303214
177	0xbd6dc560	-0.05804956
178	0xbca7632f	-0.020433037
179	0x3d42773a	0.047476985
180	0xbc1b9dc0	-0.00949806
181	0x3c3a52de	0.011372296
182	0x3c92a619	0.017901467
183	0x3b9dc3c7	0.0048145982
184	0x3d6dc38d	0.05804782
185	0x3c204571	0.009782181
186	0x3d70e1e9	0.058809195
187	0xbd0e0a39	-0.034677718
188	0x3cddf83f	0.027095912
189	0xbd48dd7b	-0.049039345
190	0xbd52359e	-0.051320665
191	0xbcaeedc3	-0.021353608
192	0x3d7d1c94	0.061794832
193	0xbd691462	-0.056904204
194	0x3cda7ad0	0.02666989
195	0x3d6deb50	0.05808574
196	0xbd648f32	-0.055800624
197	0xbc95e024	-0.018295355
198	0xbc8b911c	-0.017036967
199	0xbd853c1d	-0.06505606
200	0xbd30eea9	-0.043196354
201	0x3d2acfa1	0.041701917
202	0xbccad20e	-0.024758365
203	0x3d68486c	0.056709692
204	0xbd1cce67	-0.038282778
205	0xbd566cef	-0.05234998
206	0x3c3909bf	0.011293828
207	0xbd7b3322	-0.06132806
208	0x3bbbff9d	0.0057372586
209	0xbd5fd216	-0.054643713
210	0xbce32a0d	-0.027730012
211	0x3d226514	0.039647177
212	0x3d21bd63	0.039487254
213	0xbcfbad50	-0.03072229
214	0x3ce1c7c7	0.027561082
215	0xbb801543	-0.0039087846
216	0xbca45009	-0.020057695
217	0x3b161ef1	0.0022906626
218	0xbb779787	-0.0037779526
219	0x3d8eb7b1	0.0696863
220	0xbd40f1e1	-0.047105674
221	0xbd7b7c1c	-0.061397657
222	0x3d15a749	0.03653649
223	0x3d5bdc72	0.05367703
224	0x3d5f76ae	0.05455654
225	0x3ce7d3e4	0.02829928
226	0xbc1c1f04	-0.009528879
227	0x3d1821b8	0.03714153
228	0x3d25081a	0.04029093
229	0x3d835f34	0.06414643
230	0x3d1c1a01	0.038110737
231	0x3d52baec	0.051447794
232	0xbd3b4fdf	-0.045730468
233	0xbd3504f5	-0.04419418
234	0x3d817bea	0.06322463
235	0xbc809da8	-0.015700176
236	0xbc4d21c2	-0.0125202555
237	0xbbc298b9	-0.005938616
238	0xbc9c271d	-0.01906162
239	0x3cf65f7f	0.030074833
240	0xbccf54fc	-0.025309078
241	0x3cdd8e44	0.027045377
242	0xbd669a4c	-0.056299493
243	0xbcd1fa1f	-0.025631962
244	0xbd520a75	-0.051279504
245	0x3cfc874e	0.030826237
246	0x3d4e7da2	0.05041278
247	0x3d612b3d	0.054972876
248	0x3b8a825b	0.0042269654
249	0x3d8c14c1	0.06839896
250	0xbc46fb30	-0.012144849
251	0x3ccada66	0.024762344
252	0x3d350908	0.044198066
253	0xbd074797	-0.033027258
254	0xbd0621e9	-0.032747183
255	0xbd300543	-0.042973768

Fc1.0.bias f4 [128]
0	0xbd46c3a5	-0.048526425
1	0x3d534172	0.051576085
2	0x3c9bed8d	0.019034171
3	0xbd630a66	-0.05542984
4	0xbd5409e4	-0.051767245
5	0xbd0bbccd	-0.0341156
6	0x3d3b0583	0.045659553
7	0x3d861452	0.065468445
8	0x3d112bdf	0.03544223
9	0x3a3183ad	0.00067716354
10	0xbd3eea15	-0.046609957
11	0xbd0dabb2	-0.03458757
12	0x3d71f522	0.059071667
13	0xbd7a6e37	-0.061140265
14	0x3c2ab9a8	0.01042024
15	0x3d90c3c7	0.070685916
16	0x3cbcb000	0.023033142
17	0xbc578d63	-0.013156268
18	0x3d541bd5	0.051784355
19	0xbd6c8d2e	-0.057751827
20	0xbbf41795	-0.0074491003
21	0xbcb369ad	-0.021900976
22	0x3c46272b	0.012094299
23	0x3d2e4ec3	0.04255558
24	0xbd48d7f4	-0.049034074
25	0xbce6ea0d	-0.028187776
26	0x3d403343	0.046923887
27	0xbcffcf42	-0.031226758
28	0xbb01c26e	-0.0019799727
29	0x3d61ab96	0.055095278
30	0xbd5a6f64	-0.053328887
31	0x3d3b16c2	0.045676
32	0x3d7f64db	0.062352043
33	0x3b8e4263	0.00434141
34	0x3cecd906	0.028912079
35	0x3d3253a8	0.043536812
36	0x3d863122	0.0655234
37	0x3d05f618	0.032705396
38	0xbd6fc89c	-0.058540925
39	0xbd1ef2e1	-0.038805846
40	0x3d01b74e	0.031668954
41	0x3cb51244	0.022103436
42	0x3d786300	0.06064129
43	0xbc8e855f	-0.01739758
44	0x3c894235	0.016755203
45	0xbcf893b6	-0.030343872
46	0x3b607bdf	0.003425352
47	0x3d671b59	0.056422565
48	0xbd40730c	-0.046984717
49	0x3d7fed0b	0.06248192
50	0xbccf6a6a	-0.025319297
51	0xbcf0add8	-0.02937977
52	0x3c4154ae	0.011799974
53	0x3d149b2b	0.036280792
54	0x3d69206e	0.056915693
55	0xbc8cbb34	-0.01717911
56	0x3d086ee8	0.033308893
57	0xbd81276e	-0.06306349
58	0xbb90cd5f	-0.0044190134
59	0x3d661693	0.056173872
60	0x3ce387e4	0.027774759
61	0x3c54c5c9	0.012986609
62	0x3cda6521	0.02665955
63	0xbccc5ac2	-0.02494562
64	0xbca034fa	-0.019556511
65	0x3d3d12e6	0.0461606
66	0x3d66cc23	0.056347024
67	0xbd30fdf9	-0.043210957
68	0xbd596a44	-0.05307986
69	0xbc37efb6	-0.011226585
70	0x3b2bbb8c	0.0026204316
71	0xbcd7d183	-0.02634502
72	0x3d902674	0.07038584
73	0x3d033f07	0.03204253
74	0xbd54d80c	-0.05196385
75	0x3d8cd40a	0.06876381
76	0x3c9b2a26	0.018940996
77	0xbc478f53	-0.012180167
78	0x3ca0dd5d	0.019636804
79	0xbc152bd0	-0.009104684
80	0xbc949913	-0.018139398
81	0xbc3629e0	-0.011118382
82	0xbc1cc3d3	-0.0095681725
83	0x3d55c6ef	0.05219167
84	0xbcd86a8b	-0.026417991
85	0x3cc693bf	0.024240373
86	0x3d2af088	0.041733295
87	0xbd85e744	-0.06538251
88	0x3d8dcd85	0.06923965
89	0xbd47b10f	-0.04875284
90	0x3d5bd71c	0.05367194
91	0x3c8f1325	0.017465184
92	0xbc0bb394	-0.0085267015
93	0x3ae7757e	0.0017658917
94	0xbb05a8ad	-0.0020394728
95	0x3d10a29f	0.035311338
96	0xbd001b73	-0.031276178
97	0x3d16f7f0	0.036857545
98	0x3d136aa9	0.03599039
99	0xbd7f109e	-0.062271707
100	0xbc3cba05	-0.01151896
101	0x3d3ea61c	0.046545133
102	0xbd406217	-0.046968546
103	0x3d86c087	0.065796904
104	0xbcd6c229	-0.02621563
105	0xbc9fc8dc	-0.019504957
106	0x3d249adc	0.040186748
107	0x3c18429c	0.009293225
108	0xbd936aa9	-0.07198078
109	0x3d6b5e50	0.05746299
110	0x3cf4511a	0.029823828
111	0x3ccf4618	0.025301978
112	0xbd67983f	-0.056541678
113	0x3d53b1b9	0.05168316
114	0xbc705ace	-0.014670087
115	0xbb8d339a	-0.00430913
116	0xbcfa4f21	-0.03055531
117	0x3c5faecb	0.013652514
118	0xbc739ab9	-0.014868432
119	0x3d8ceea2	0.06881453
120	0xbccc90ec	-0.024971448
121	0xbcc36ee0	-0.02385658
122	0xbb3c1c39	-0.0028703345
123	0x3c905f37	0.017623527
124	0xbc3fd72f	-0.011709019
125	0x3d1668e4	0.036721125
126	0xbc9ba3fb	-0.01899909
127	0x3a66cad6	0.00088040286

Fc2.0.weight f4 [128, 20]
0	0x3d30da22	0.043176778
1	0xbd220735	-0.039557654
2	0xbd8e3238	-0.06943172
3	0x3d26bdcb	0.040708344
4	0xbdfd9616	-0.12382142
5	0x3dc480c7	0.09594875
6	0x3cd484db	0.025942257
7	0xbb905387	-0.0044044885
8	0x3dda5c65	0.10662154
9	0x3df1579b	0.117842875
10	0x3bf82d50	0.007573761
11	0x3d7fa8e5	0.06241693
12	0x3b0eb030	0.0021772496
13	0x3de70003	0.11279299
14	0xbe2654f8	-0.1624335
15	0x3d046cc4	0.03233029
16	0xbe0611db	-0.13092749
17	0xbd81883d	-0.063248135
18	0x3c68181c	0.014165904
19	0xbe2347f4	-0.15945417
20	0x3ccf10b8	0.025276527
21	0xbd978410	-0.07398236
22	0xbe016ec8	-0.12639916
23	0xbe25e9e4	-0.16202503
24	0x3ad152e6	0.001597014
25	0x3ada8c97	0.0016673979
26	0xbd618de6	-0.055066966
27	0x3d6a4d85	0.057202835
28	0xbd8cbe29	-0.06872208
29	0xbe215df7	-0.15758501
30	0x3c8b5e64	0.017012782
31	0x39b03545	0.00033609025
32	0xbdc2d31b	-0.095129214
33	0xbbea0f8c	-0.0071429666
34	0x3d6d1d29	0.057889137
35	0xbd87365b	-0.06602164
36	0x3e22f9af	0.15915559
37	0x3c0f848a	0.008759627
38	0x3db99ce2	0.09063126
39	0xbda80914	-0.082048565
40	0x3dec77b3	0.11546268
41	0xbbc4dc57	-0.006007712
42	0xbdb3f786	-0.08787446
43	0x3e20f166	0.15717086
44	0x3d9770d6	0.073945686
45	0x3be06b17	0.0068487036
46	0x3d28c313	0.041201662
47	0x3c3bd74a	0.011464903
48	0x3e0a8360	0.13526678
49	0x3cfcd28e	0.030862119
50	0xbc007074	-0.007839311
51	0x3d703523	0.058644425
52	0xbd8d63aa	-0.06903775
53	0x3d1ee171	0.038789216
54	0x3e02fdd3	0.12792139
55	0x3dc494aa	0.09598668
56	0x3cbc15b6	0.022959571
57	0xbd7771cb	-0.060411256
58	0xbdff1399	-0.1245491
59	0x3e1c2c77	0.15251337
60	0xbe129eb6	-0.14318356
61	0xbd955653	-0.07291856
62	0x3d10ef14	0.035384253
63	0xbdd0a5b0	-0.101878524
64	0xbd29a8b5	-0.041420657
65	0x3e07260c	0.13198107
66	0x3d4eb639	0.05046675
67	0x3de83931	0.113390334
68	0xbdf33168	-0.11874658
69	0xbd1b80f0	-0.03796476
70	0x3dbc73be	0.092017636
71	0xbdcc6afc	-0.09981343
72	0xbe29cc49	-0.16581835
73	0x3d9e3263	0.07724454
74	0xbd99fa45	-0.07518438
75	0xbe183099	-0.14862289
76	0x3c4e9a43	0.012610021
77	0xbe065f3a	-0.13122264
78	0x3dcfe42b	0.101509415
79	0xbdd32489	-0.10309703
80	0xbd8ea7a8	-0.06965572
81	0x3d006b9c	0.031352624
82	0xbdd8c80f	-0.10585033
83	0x3df2016b	0.11816677
84	0x3e18756d	0.14888544
85	0xbe0ae965	-0.13565595
86	0x3d709f7b	0.058745842
87	0x3e290840	0.16507053
88	0xbe1f32ca	-0.15546718
89	0x39972ad5	0.00028832877
90	0x3d8dc2e3	0.06921937
91	0x3dd06e0a	0.10177238
92	0xbdb2a49b	-0.08722802
93	0xbd86f77a	-0.06590171
94	0x3d6904c4	0.05688931
95	0xbcd05bd5	-0.025434414
96	0x3d968bce	0.073508844
97	0x3e204f69	0.15655293
98	0x3e275e75	0.16344626
99	0x3ce87f4f	0.028381018
100	0xbe15811f	-0.14600037
101	0xbdc95a83	-0.09831717
102	0x3c4c848d	0.012482774
103	0xbd30a9ae	-0.04313057
104	0xbd8e9ee6	-0.06963901
105	0x3cc01166	0.023445796
106	0xbd91f9ad	-0.071277
107	0xbe19e150	-0.15027356
108	0x3def7f94	0.116942555
109	0xbbd69996	-0.0065490706
110	0x3dcc626a	0.099797085
111	0xbb55a824	-0.003260144
112	0x3e044444	0.12916666
113	0xbd995645	-0.07487158
114	0xbd9581d5	-0.07300154
115	0xbd1802c0	-0.037111998
116	0xbe276e30	-0.16350627
117	0xbd56d072	-0.052444883
118	0xbd9f6b7c	-0.07784173
119	0x3ddf7ed2	0.10912861
120	0xbe08f0ed	-0.13373156
121	0xbcddaec1	-0.027060868
122	0xbda3fd36	-0.080072805
123	0x3da218e1	0.079149015
124	0x3d4cf066	0.05003395
125	0xbd23be71	-0.03997654
126	0xbddce1de	-0.10785268
127	0x3e1e4069	0.15454258
128	0xbe217007	-0.15765391
129	0x3dafc1b3	0.08581867
130	0xbdb7fb7c	-0.08983514
131	0x3e13a17e	0.14417073
132	0x3e1216c7	0.14266501
133	0x3d64035b	0.055667263
134	0x3d86620d	0.065616705
135	0xbd36d823	-0.044639718
136	0x3d926409	0.071479864
137	0x3d0e9a3e	0.034815066
138	0x3d37315d	0.04472481
139	0x3da39ded	0.07989106
140	0x3deeab1a	0.11653729
141	0xbe1288fc	-0.14310068
142	0x3e133a15	0.14377625
143	0xbe076c6f	-0.13224958
144	0x3dddcd2d	0.1083015
145	0xbe1e1e47	-0.15441237
146	0xbdc74aac	-0.097310394
147	0xbe293edd	-0.16527887
148	0xbd0344dd	-0.032048095
149	0xbda8840d	-0.08228312
150	0xbe0aacc1	-0.13542463
151	0xbdcd6b8a	-0.10030277
152	0x3c0c4de2	0.008563491
153	0xbe026fed	-0.12738009
154	0x3d5f96a4	0.05458702
155	0x3df9cde0	0.12197471
156	0x3e279057	0.16363655
157	0xbe20646e	-0.15663311
158	0x3db74116	0.08947961
159	0xbd74fb06	-0.059809707
160	0xbd2cd305	-0.04219343
161	0x3e185341	0.14875509
162	0xbcbe5faf	-0.023238985
163	0xbccb3ae2	-0.024808351
164	0x3d7e102d	0.062027145
165	0x3decc06f	0.11560141
166	0xbe1a030f	-0.1504023
167	0xbde755fd	-0.11295698
168	0x3d12716e	0.035752706
169	0x3dc55a14	0.09636322
170	0x3d791418	0.06081018
171	0xbdebb362	-0.11508824
172	0xbc3f0d5c	-0.0116609
173	0x3d9c9770	0.07646072
174	0x3dd77b98	0.105216205
175	0xbd95e1a6	-0.0731843
176	0xbe0bd461	-0.13655235
177	0xbbf6e1fd	-0.007534264
178	0xbd4eaa0a	-0.05045513
179	0x3d5c9b99	0.053859327
180	0x3dc637ab	0.096785866
181	0xbe273bf6	-0.16331467
182	0x3c3b8c83	0.011447075
183	0x3d3d3581	0.046193603
184	0xbdd0629d	-0.10175059
185	0x3e0567cc	0.13027877
186	0x3d188855	0.03723939
187	0x3e29d335	0.16584475
188	0xbe093cd0	-0.13402104
189	0xbe261e03	-0.16222386
190	0xbe0b4597	-0.13600765
191	0x3e2715ed	0.16316958
192	0x3d470f1e	0.0485984
193	0x3e1841ae	0.14868805
194	0xbc8a77cc	-0.016902827
195	0xbcd96e63	-0.026541894
196	0x3b34edb0	0.0027607493
197	0xbdc964f4	-0.098337084
198	0xbdbf38aa	-0.0933698
199	0xbdb83c4a	-0.08995874
200	0xbe08c7bf	-0.13357447
201	0x3d8828c8	0.066484034
202	0x3d7cc4f8	0.06171128
203	0x3db085dd	0.086192824
204	0x3c69e3fe	0.014275549
205	0x3dd364b8	0.10321945
206	0xbcaabb98	-0.020841405
207	0x3c51055e	0.012757627
208	0x3e03518e	0.1282408
209	0xbe144392	-0.14478901
210	0xbdd4ce01	-0.103908546
211	0xbc199f3d	-0.009376344
212	0xbe08364c	-0.13301963
213	0x3e156f6b	0.14593284
214	0x3d95dfa2	0.07318045
215	0x3d9a1215	0.0752298
216	0x3dc099a5	0.09404305
217	0x3dc44e88	0.09585291
218	0x3de3bffa	0.11120601
219	0xbd389f05	-0.045073528
220	0xbc93d6ab	-0.018046698
221	0x3d3a3814	0.045463637
222	0x3c2a6002	0.010398867
223	0x3da7abc5	0.08187059
224	0x3d8fce1d	0.07021735
225	0xbc72b04d	-0.014812541
226	0xbcf6e31a	-0.030137587
227	0x3da58943	0.08082821
228	0x3dbcdf70	0.09222305
229	0xbdfe31e2	-0.12411858
230	0xbda00188	-0.07812792
231	0xbaa0ef96	-0.0012278433
232	0xbdafb769	-0.085799046
233	0x3e1e1807	0.15438853
234	0xbe042989	-0.1290647
235	0x3b46137d	0.0030224018
236	0x3e11089c	0.1416344
237	0x3bcc92f8	0.006243106
238	0xbdff6fbb	-0.12472483
239	0x3d26b131	0.040696327
240	0xbe07d5db	-0.13265173
241	0x3d3efe49	0.046629224
242	0xbdea1f2a	-0.11431725
243	0x3dc0b1fb	0.09408947
244	0x3cb2e368	0.021836951
245	0x3e0f4800	0.1399231
246	0x3dead69b	0.11466714
247	0xbe1da60d	-0.15395375
248	0xbddb5f3d	-0.10711525
249	0x3e2310d8	0.15924394
250	0xbd8d0a3e	-0.06886719
251	0xbda4e21e	-0.08050941
252	0xbe0bac8c	-0.1364004
253	0xbcb4de64	-0.0220787
254	0xbe181c25	-0.14854486
255	0xbcccf513	-0.025019204

Fc2.0.bias f4 [128]
0	0x3e0486c4	0.12942034
1	0x3debfee7	0.11523228
2	0xbdb21732	-0.086958304
3	0xbdc4389a	-0.095811084
4	0xbd9502ae	-0.07275902
5	0xbc3f7ff1	-0.011688218
6	0xbd989efc	-0.07452199
7	0x3d80de94	0.062924534
8	0x3bb7eb1a	0.005612743
9	0x3bee1d4c	0.007266676
10	0xbdc392f2	-0.09549512
11	0x3b54334a	0.0032379203
12	0x3ce1cefa	0.027564514
13	0x3de67e6c	0.11254582
14	0xbd8f1797	-0.06986921
15	0xbd788a0c	-0.060678527
16	0x3d833c00	0.064079285
17	0x3dd07388	0.10178286
18	0xbe1f5c9c	-0.15562671
19	0xbd0fe3d6	-0.03512939
20	0xbe28e5ee	-0.16493961
21	0xbcc561f9	-0.024094569
22	0x3da861f3	0.08221807
23	0x3d8dde30	0.069271445
24	0x3e0e9449	0.13923754
25	0x3e0f1048	0.13971055
26	0x3e188a06	0.14896402
27	0xbe04974f	-0.12948345
28	0x3de7db09	0.113210745
29	0x3d8b57c0	0.06803846
30	0x3e250c91	0.16118075
31	0xbdc31205	-0.09524921
32	0xbd60c147	-0.054871824
33	0xbbc50438	-0.006012466
34	0x3cf2b19d	0.029625708
35	0xbcd44702	-0.025912765
36	0x3daf277a	0.085524514
37	0x3c3d95c0	0.011571348
38	0x3dbe1d52	0.09282936
39	0xbd042a2e	-0.03226679
40	0x3d0957ca	0.033530988
41	0xbe2793e8	-0.16365016
42	0xbe19397e	-0.14963338
43	0xbdaaf1c7	-0.083468966
44	0x3db02c74	0.08602229
45	0xbda4663c	-0.08027312
46	0x3d9f1b61	0.07768894
47	0x3d90ce22	0.07070567
48	0x3dc9234b	0.09821185
49	0xbc84a67f	-0.016192673
50	0x3e1e8056	0.15478644
51	0xbdf96c88	-0.12178904
52	0xbd21995c	-0.039452896
53	0xbdf2fd66	-0.11864738
54	0x3df57eea	0.119870976
55	0x3dbb770e	0.09153567
56	0x3d1643a7	0.036685612
57	0x3e0e08c5	0.13870533
58	0x3e216133	0.15759735
59	0x3e05ef51	0.13079573
60	0x3df41eb1	0.119199164
61	0x3df86b33	0.12129822
62	0xbe199b6d	-0.15000696
63	0x3bbbbef3	0.00572955
64	0x3bd73349	0.006567393
65	0xbc99f4aa	-0.018793423
66	0x3e0335d7	0.12813507
67	0xbe08e31c	-0.13367885
68	0xbde410b8	-0.11136001
69	0x3d1f7e9e	0.03893911
70	0xbd201a8b	-0.039087813
71	0xbd8205de	-0.06348775
72	0xbd06bb80	-0.032893658
73	0x3e2467f0	0.16055274
74	0xbdad30ee	-0.08456598
75	0x3c66ee42	0.014094891
76	0x3d11233c	0.035433993
77	0xbe10c5b1	-0.14137913
78	0xbdfb34e8	-0.122659504
79	0xbdefa064	-0.11700514
80	0x3d06174c	0.03273706
81	0xbdcac842	-0.099014774
82	0xbe11fb26	-0.14255962
83	0x3df98b34	0.12184754
84	0xbdef01a9	-0.116702385
85	0xbc9cdd3b	-0.01914846
86	0xbda01795	-0.07816998
87	0xbc24d082	-0.010059478
88	0xbddef54e	-0.10886632
89	0xbcd571a0	-0.026055157
90	0x3d416c52	0.047222443
91	0x3da7554d	0.08170567
92	0x3d45aecb	0.0482624
93	0xbe13b028	-0.14422667
94	0xbe1a03f4	-0.1504057
95	0x3e1e70eb	0.15472762
96	0xbc9f3a8e	-0.0194371
97	0xbc87fdfb	-0.0166006
98	0xbcbb4fa7	-0.02286513
99	0xbdb7399d	-0.08946536
100	0x3b8569e3	0.0040714606
101	0x3c81d20d	0.01584723
102	0x3e050993	0.12991934
103	0x3bf71954	0.007540861
104	0xbd90c71a	-0.070692256
105	0xbdea92a3	-0.1145375
106	0xbd4cbeed	-0.04998677
107	0xbce8dd4f	-0.02842584
108	0xbd54d0ff	-0.051957127
109	0xbd9e2989	-0.07722766
110	0x3d33d6e9	0.043906126
111	0xbe05d94b	-0.13071172
112	0x3add599e	0.001688767
113	0x3d35bc8a	0.044369258
114	0x3af2bce3	0.0018519427
115	0x3d169c75	0.036770303
116	0x3dbb89e9	0.09157164
117	0xbdc09750	-0.094038606
118	0x3c748d50	0.01492627
119	0x3dd0b798	0.10191268
120	0xbde5e3fe	-0.11225127
121	0xbc9b4984	-0.018955953
122	0xbdc1e3f2	-0.09467305
123	0x3db7b02b	0.08969148
124	0xbcbe643a	-0.023241151
125	0xbe20fd69	-0.15721668
126	0xbdbfdd2b	-0.09368356
127	0x3dc4da11	0.09611905

Fc3.0.weight f4 [128, 5]
0	0xbe9e1109	-0.30872372
1	0xbe614447	-0.21998702
2	0x3c38d5b2	0.011281418
3	0xbaf11418	-0.0018392829
4	0xbc258981	-0.010103584
5	0xbe7c0f51	-0.24615218
6	0xbeadc907	-0.33942434
7	0xbe2372d4	-0.15961772
8	0xbe29518a	-0.16535011
9	0xbe8d65dc	-0.27616775
10	0xbd8de286	-0.069279715
11	0xbce8897b	-0.028385868
12	0x3e6bd66a	0.23031011
13	0xbe2052d6	-0.156566
14	0x3cfd2773	0.0309026
15	0xbdb44a70	-0.0880326
16	0x3ddc91f2	0.10770024
17	0x3df01db2	0.11724414
18	0x3ce81cf7	0.028334124
19	0xbe8ac2a6	-0.2710163
20	0xbe4ce645	-0.20009716
21	0xbe5208fa	-0.20511237
22	0x3dfcafea	0.123382404
23	0xbdc5fa64	-0.09666899
24	0x3de2cd9b	0.110743724
25	0xbe46e980	-0.1942501
26	0xbd85d851	-0.065354
27	0x3e8fa0c1	0.28052333
28	0x3e77be47	0.24193679
29	0x3d9e2b42	0.077230945
30	0xbd51f662	-0.05126036
31	0xbdb55269	-0.08853609
32	0x3e961df4	0.29319727
33	0xbe356703	-0.17715077
34	0x3e0d0362	0.13770822
35	0x3cbf3c76	0.02334426
36	0xbc9b4d8d	-0.018957878
37	0x3d948c3d	0.07253311
38	0xbdc2ca0d	-0.095111944
39	0x3cd12f72	0.025535319
40	0x3e02faea	0.12791029
41	0xbe5a3ab9	-0.21311463
42	0x3e81878e	0.25298733
43	0x3e07aacb	0.13248746
44	0x3c3dae2a	0.0115771685
45	0xbe39509d	-0.18097158
46	0xbe4efa5c	-0.20212692
47	0xbc1f5e0a	-0.0097270105
48	0x3e209ba5	0.15684374
49	0x3ea83b2d	0.32857648
50	0x3e642240	0.2227869
51	0xbe304f46	-0.1721774
52	0x3e99d398	0.30044246
53	0x3e57491f	0.21023987
54	0xbd854ed5	-0.06509177
55	0x3e90c1bf	0.28272817
56	0xbe3ef4dd	-0.18648095
57	0xbe2e271d	-0.17007108
58	0x3dc62b95	0.09676281
59	0x3dd2bca1	0.10289884
60	0x3e0c916c	0.13727349
61	0xbe53b759	-0.2067541
62	0x3dad82e7	0.08472233
63	0x3d88dcdb	0.0668275
64	0xbe6d1016	-0.23150668
65	0xbe966ea1	-0.29381278
66	0x3e4b91dd	0.19879861
67	0xbce27da3	-0.027647799
68	0xbe40adba	-0.18816271
69	0xbd69ad9a	-0.057050325
70	0xbcf46b51	-0.029836329
71	0xbba67385	-0.005079689
72	0x3e84b18b	0.25916705
73	0x3d18935d	0.03724991
74	0x3d370cb2	0.04468984
75	0xbd74abf8	-0.059734315
76	0x3e23eb6f	0.1600778
77	0x3cf3284a	0.029682297
78	0xbc089e3c	-0.008338507
79	0xbe538a91	-0.20658328
80	0x3ea98d43	0.33115587
81	0xbd1f17a2	-0.038840897
82	0x3d853e60	0.06506038
83	0xbe53cc11	-0.20683314
84	0x3e0a5ef2	0.13512781
85	0xbea10862	-0.31451708
86	0xbe0642bd	-0.13111396
87	0x3d30a25b	0.043123584
88	0x3d911b87	0.070853285
89	0xbea1ce07	-0.316025
90	0xbdc6d095	-0.097077526
91	0xbda49ea3	-0.0803807
92	0xbea306fe	-0.31841272
93	0xbe9bf3fa	-0.30459577
94	0x3e92932e	0.28627914
95	0xbeb16033	-0.34643707
96	0xbe95a12c	-0.29224527
97	0x3e9545d8	0.2915485
98	0xbd341e45	-0.04397418
99	0x3e558d73	0.2085474
100	0x3eb087b7	0.34478542
101	0xbe927728	-0.28606534
102	0xbe7846da	-0.24245778
103	0x3e42a7e3	0.19009356
104	0x3e15d08e	0.14630339
105	0x3e964edd	0.29357043
106	0xbe88fb03	-0.26754007
107	0xbe0a1a11	-0.13486506
108	0xbe50cc2e	-0.20390388
109	0x3ea002b5	0.31252065
110	0x3e3b7920	0.18307924
111	0x3e01621d	0.12635083
112	0x3dfcaaf7	0.123372965
113	0x3e56f485	0.20991714
114	0xbe0d0490	-0.13771272
115	0xbe470a0d	-0.19437428
116	0x3e3c3bc1	0.1838217
117	0x3e817064	0.2528106
118	0xbb8513ee	-0.0040612137
119	0xbe4de74a	-0.20107761
120	0xbe3f2431	-0.1866615
121	0xbe32342c	-0.17402714
122	0x3d41329f	0.047167417
123	0x3e829de7	0.25511095
124	0x3e1afafe	0.15134808
125	0x3e0c76a2	0.1371713
126	0x3e7efe1c	0.24901623
127	0xbe9c9acd	-0.30586854
128	0x3d1f2fe0	0.038864017
129	0x3de1a2a7	0.110173516
130	0xbd8e1212	-0.069370404
131	0xbd7b75fd	-0.06139182
132	0xbc584f19	-0.013202452
133	0xbe026501	-0.12733842
134	0xbe018553	-0.12648515
135	0x3e7472bf	0.23871897
136	0xbd12a0e7	-0.03579798
137	0x3e07557e	0.13216206
138	0xbe880474	-0.26565897
139	0x3dbb399d	0.09141848
140	0xbe370cbc	-0.17875952
141	0xbe454241	-0.19263555
142	0xbe646d6f	-0.2230737
143	0xbe6a04e2	-0.22853425
144	0xbe547b4f	-0.20750163
145	0x3e94b241	0.29042247
146	0xbe3d6db7	-0.18498884
147	0x3d6110e8	0.054947764
148	0x3d97ca60	0.07411647
149	0x3dde7134	0.108614355
150	0x3d874a5c	0.0660598
151	0x3e7c352c	0.24629658
152	0x3eabf85c	0.3358792
153	0xbeaddb63	-0.3395644
154	0x3ea4993b	0.32148156
155	0x3d964acc	0.07338485
156	0xbcf87aa0	-0.03033191
157	0x3e808279	0.25099543
158	0xbd354010	-0.044250548
159	0x3e18300b	0.14862077
160	0x3c8c0787	0.017093433
161	0x3dc8e181	0.098086365
162	0x3e911142	0.2833348
163	0xbc1a0058	-0.009399496
164	0x3e2db4e6	0.16963539
165	0xbdabfbf0	-0.08397663
166	0xbd84ba92	-0.06480898
167	0xbe9342e1	-0.28761962
168	0xbd9f9119	-0.07791347
169	0x3ddb34c4	0.107034236
170	0x3e30ea41	0.17276861
171	0xbe430d7b	-0.19048111
172	0x3e28c10d	0.16479893
173	0x3d9237e0	0.071395636
174	0xbd599d04	-0.053128257
175	0xbd9497bb	-0.07255503
176	0xbeaa0a6c	-0.33211076
177	0x3db96418	0.090522945
178	0xbe9d38d6	-0.30707425
179	0x3d70b221	0.058763627
180	0xbe782705	-0.24233635
181	0x3e6730b4	0.22577173
182	0x3e1effe8	0.15527308
183	0x3e842c62	0.2581511
184	0x3eaff7e1	0.34368804
185	0xbe1041a4	-0.1408754
186	0xbe3b8305	-0.18311699
187	0x3beb653a	0.007183698
188	0x3c9419b5	0.018078664
189	0xbd345e96	-0.044035517
190	0xbd9b47bb	-0.07582041
191	0xbe798fe3	-0.24371295
192	0x3e97dafa	0.29659253
193	0x3d77cee7	0.06050005
194	0xbca9c275	-0.020722607
195	0x3e936d80	0.2879448
196	0x3da82205	0.08209614
197	0xbe977786	-0.29583377
198	0x3e308e27	0.17241727
199	0x3d9273cb	0.07150992
200	0x3eab104a	0.33410865
201	0xbdf17c2f	-0.11791264
202	0xbe6ff1e1	-0.23432113
203	0xbda92349	-0.08258683
204	0xbe07faa2	-0.13279203
205	0x3e9338e4	0.28754342
206	0xbe838836	-0.25689858
207	0xbe3796b1	-0.17928578
208	0x3e88eff7	0.2674558
209	0x3da6aaca	0.08138044
210	0x3e26e591	0.1629851
211	0xbd6edbd4	-0.058315113
212	0xbdc95e20	-0.09832406
213	0x3dff6b44	0.12471631
214	0x3cfafe5c	0.030638866
215	0x3e20800c	0.15673846
216	0xbe255bd9	-0.16148318
217	0x3deea89e	0.11653255
218	0x3e9673d3	0.29385242
219	0xbeaef0f4	-0.34168208
220	0xbeab633f	-0.33474156
221	0x3e24a094	0.1607688
222	0x3d95485e	0.072891936
223	0xbe2e8288	-0.17041981
224	0xbe6a9ee1	-0.2291217
225	0xbe2a9509	-0.16658415
226	0xbd9e4ac4	-0.07729104
227	0x3d0d07c7	0.034431245
228	0xbdcfaa94	-0.10139957
229	0x3e78eced	0.2430913
230	0x3e86c9e4	0.26325905
231	0xbd557375	-0.05211206
232	0x3e88e679	0.26738337
233	0x3dccbb79	0.09996695
234	0xbe90e089	-0.28296307
235	0x3d52b3bc	0.05144094
236	0xbe0eae02	-0.13933566
237	0x3dccabf9	0.09993739
238	0x3dd4bec3	0.103879474
239	0xbce91b0b	-0.028455278
240	0xbeac5625	-0.33659473
241	0x3aef1c29	0.0018242645
242	0xbeab47bd	-0.3345317
243	0x3c8f7209	0.01751043
244	0x3e7fa5df	0.24965619
245	0x3e152d96	0.14568171
246	0xbd8d1d1b	-0.06890317
247	0xbc99e072	-0.018783782
248	0xbd176968	-0.036965758
249	0xbd8f12ef	-0.06986033
250	0xbe6fb2f8	-0.23408115
251	0xbe913359	-0.28359488
252	0x3e99343a	0.29922658
253	0x3cefa27b	0.029252281
254	0xbe9579f9	-0.2919462
255	0x3eae5f7f	0.34057233

Fc3.0.bias f4 [128]
0	0xbe57d6a5	-0.21077974
1	0xbe2fa176	-0.17151436
2	0x3e6f4aa5	0.23368318
3	0x3ce0c7c4	0.027439006
4	0x3e8cba4e	0.2748589
5	0x3d49c118	0.049256414
6	0x3d96a4b7	0.073556356
7	0x3e490e09	0.1963426
8	0x3dd0a2b8	0.10187286
9	0xbda3d7bb	-0.08000132
10	0x3e56dbbd	0.20982261
11	0x3e8b0a9d	0.27156535
12	0xbe7d9f01	-0.24767686
13	0x3e9a35ff	0.3011932
14	0x3e57900c	0.21051043
15	0xbe7afee9	-0.24511303
16	0xbe42e154	-0.19031268
17	0xbe906d2f	-0.282083
18	0x3ea1700c	0.31530797
19	0xbda97d81	-0.08275891
20	0xbe9a7a31	-0.3017135
21	0x3e8279af	0.25483462
22	0xbe4148c1	-0.1887541
23	0x3d695da7	0.05697408
24	0xbc7e655a	-0.015527094
25	0xbe03545a	-0.12825146
26	0x3c21488c	0.009843957
27	0x3e0179fb	0.12644188
28	0xbd9f3246	-0.07773261
29	0x3c2fb0b9	0.010723286
30	0xbe6b0749	-0.22951998
31	0xbea57b80	-0.32320786
32	0x3cabec82	0.0209868
33	0x3e78a79c	0.24282688
34	0x3e55e983	0.20889859
35	0x3e5960ba	0.21228305
36	0x3e74cd07	0.23906337
37	0xbdfc3f4d	-0.12316761
38	0xbde55b05	-0.11199001
39	0x3ea4ef04	0.32213604
40	0xbe9886b9	-0.29790285
41	0x3ea83c28	0.32858396
42	0x3e62a6db	0.22133963
43	0xbe0a073e	-0.13479325
44	0x3eb10924	0.34577286
45	0xbe16f89b	-0.14743273
46	0xbc1867e8	-0.009302117
47	0xbeac5f74	-0.33666575
48	0xbe1664e2	-0.14686921
49	0x3ab19b30	0.0013550278
50	0xbdce0018	-0.10058612
51	0x3d773a38	0.060358256
52	0x3e8e168e	0.27751583
53	0x3eab2a69	0.33430794
54	0xbeb00e3b	-0.34385857
55	0x3e52eb78	0.20597637
56	0xbdbf0289	-0.093266554
57	0x3e9b1a42	0.3029347
58	0xbe9524bb	-0.29129586
59	0x3dc73187	0.097262435
60	0xbcaaf457	-0.020868463
61	0x3cbaa242	0.022782449
62	0xbe0a4471	-0.13502671
63	0x3e8a6419	0.27029493
64	0x3e007533	0.12544708
65	0xbe21cc99	-0.15800704
66	0xbd5dd168	-0.054154783
67	0x3e9a9688	0.3019297
68	0xbd4c8811	-0.04993445
69	0x3d6d58f5	0.057946164
70	0x3e81b58b	0.2533382
71	0xbeac1672	-0.33610874
72	0xbeace980	-0.33771896
73	0x3d4f8cb0	0.05067128
74	0xbe6ed833	-0.23324661
75	0x3e8e435e	0.27785772
76	0xbc5c5bb9	-0.013449603
77	0xbea4d3ce	-0.32192844
78	0xbe39633e	-0.18104264
79	0x3e9ccf15	0.3062674
80	0x3c817133	0.015801048
81	0xbdf35746	-0.118818805
82	0xbda903a7	-0.0825265
83	0x3e878170	0.2646594
84	0xbba448f2	-0.0050135786
85	0xbeace519	-0.33768538
86	0x3e50fa11	0.20407893
87	0xbddeb4aa	-0.10874303
88	0xbeaa358d	-0.3324398
89	0xbe75096a	-0.23929372
90	0x3e1068b9	0.14102449
91	0xbd9ef47d	-0.07761476
92	0x3d5208ea	0.051278032
93	0xbe5f7084	-0.21820265
94	0xbe2d5f56	-0.16930899
95	0x3ce8a095	0.028396884
96	0x3e04d169	0.12970509
97	0x3e830031	0.25586084
98	0xbbdf186d	-0.0068083317
99	0x3d0ddd7e	0.03463506
100	0xbe8c43ab	-0.27395377
101	0xbea37564	-0.319255
102	0x3dc87cef	0.09789454
103	0x3de3db52	0.111258164
104	0xbe64885c	-0.22317642
105	0xbe161c24	-0.14659172
106	0x3cee9c26	0.029127192
107	0xbe91c27e	-0.28468698
108	0x3ea2876c	0.31743944
109	0xbd8b2e9b	-0.06795999
110	0xbda05389	-0.07828433
111	0xbc0c7fe3	-0.008575412
112	0x3e07fd28	0.13280165
113	0xbea2ee0d	-0.31822243
114	0xbe6e44b1	-0.23268391
115	0x3db342df	0.08752989
116	0x3e6be497	0.23036419
117	0x3e8e12c2	0.27748686
118	0x3e98f9d7	0.29878113
119	0xbdb669ec	-0.08906922
120	0xbd0a21ac	-0.03372352
121	0x3c0e1fb5	0.008674552
122	0x3e27061e	0.16310927
123	0xbb5a8a18	-0.003334647
124	0x3d5b7685	0.053579826
125	0xbdafb582	-0.08579542
126	0xbe4bc784	-0.19900328
127	0xbcccfd51	-0.025023134

fc_concat.0.weight f4 [1, 384]
0	0x3d009028	0.031387478
1	0xbcf4ab6b	-0.029866895
2	0x3b66bca6	0.0035207658
3	0xbcd3c810	-0.025852233
4	0x3c96aa5f	0.018391786
5	0x3d1223d6	0.035678707
6	0x3cdbebe2	0.026845876
7	0x3cac9b33	0.021070099
8	0xbcd64279	-0.026154744
9	0xbcae3e12	-0.021269832
10	0xbcd2f59c	-0.025751881
11	0xbc848ad9	-0.016179489
12	0x3d083526	0.03325381
13	0x3cbf3fe2	0.023345891
14	0xb88e1ab0	-6.7760586e-05
15	0x3923591a	0.00015578084
16	0xbab004c1	-0.0013429151
17	0x3cdca8a8	0.02693589
18	0x3c7214f0	0.0147755
19	0x3c6e5af1	0.014548049
20	0x3c973a66	0.018460464
21	0xbc50bcee	-0.012740357
22	0xbcb4ae2d	-0.02205571
23	0xbc773ba9	-0.015089908
24	0xbc482b06	-0.012217289
25	0xbc3b8574	-0.011445392
26	0x3cf2c14f	0.029633192
27	0xbbb479aa	-0.0055076675
28	0xbc32d8f7	-0.010915986
29	0xbd104dd9	-0.03523049
30	0x3c8f22f1	0.017472716
31	0xbc91d2a6	-0.01780064
32	0x3d08fe34	0.033445552
33	0x3a81a2d1	0.0009890442
34	0x3b63b203	0.0034743554
35	0x3c873d78	0.016508803
36	0x3cb5b363	0.022180265
37	0x3c0a199c	0.008428957
38	0xbcf44df7	-0.029822333
39	0xbd00fa03	-0.03148843
40	0x3cc27167	0.023735715
41	0xbc6d3e48	-0.014480181
42	0xbc9e3205	-0.01931096
43	0xbcd9062d	-0.026492203
44	0x3cff40ad	0.03115877
45	0xbc21aac5	-0.009867375
46	0xba9ad6d6	-0.0011813294
47	0xbd133e5f	-0.035948154
48	0xbcba7207	-0.02275945
49	0xbc84e1cb	-0.016220948
50	0xb90c2a29	-0.00013367146
51	0x3cd56bce	0.026052382
52	0xbcffae4d	-0.031211043
53	0xbbd86606	-0.006603959
54	0x3c8a6521	0.016893925
55	0xbd11d647	-0.03560474
56	0x3992af44	0.00027977873
57	0xba053df4	-0.0005082779
58	0xbcee2de8	-0.029074624
59	0x3c4e7f22	0.012603553
60	0xbcb9059e	-0.022585686
61	0xbd0a3012	-0.03373725
62	0xbceef1d7	-0.029168053
63	0xbcc52b0a	-0.024068374
64	0xbcf32296	-0.029679578
65	0x3c4203f0	0.011841759
66	0x3bb0f50b	0.005400305
67	0xbb92c82f	-0.00447943
68	0x3cea05ae	0.028567161
69	0xbce85abc	-0.028363578
70	0xbbae4129	-0.0053178263
71	0x3caaec92	0.020864759
72	0xbbcf7bef	-0.0063319127
73	0xbabb26ce	-0.0014278532
74	0x3c04cbfe	0.008105276
75	0x3b747ac5	0.0037304622
76	0x3cbe08c0	0.023197532
77	0x3c80aff8	0.015708908
78	0xbc4a7fb0	-0.012359545
79	0x3cd45d67	0.025923444
80	0x3b43fb0e	0.002990428
81	0x3bbe5668	0.0058086403
82	0xbcca646e	-0.024706092
83	0xbd143d25	-0.036191124
84	0x3d007c0d	0.031368304
85	0xbcb06593	-0.02153281
86	0x3bdb8447	0.0066991183
87	0x3d11d3c3	0.035602342
88	0xbc28bac5	-0.010298436
89	0x3c5eb08c	0.013591897
90	0x3ce1c2f7	0.027558787
91	0x3c7e0f25	0.01550654
92	0xbcfb554a	-0.030680317
93	0x3c4c79de	0.012480227
94	0x3cb5e3cd	0.02220335
95	0x3c7ea013	0.015541094
96	0x3ce1b1ca	0.027550597
97	0xbb9c6ba7	-0.0047735753
98	0x3ca003dc	0.01953309
99	0x3cb87994	0.02251891
100	0xbb9c923b	-0.004778174
101	0xbab50d92	-0.0013813248
102	0x3d107691	0.035269324
103	0xbd047eab	-0.032347362
104	0xbd0c8619	-0.034307573
105	0x3c2e65cf	0.01064439
106	0xbcdb6cb4	-0.026785232
107	0xbc58c1b2	-0.013229774
108	0x390929bc	0.00013080885
109	0x3b9da4c8	0.004810903
110	0x3cd0a6dc	0.02547019
111	0xbcc97f4e	-0.024596836
112	0xbd0fd778	-0.035117596
113	0xbc7185e9	-0.014741399
114	0x3caf0421	0.021364274
115	0xb99214f3	-0.00027862898
116	0xbbbcb71d	-0.0057591335
117	0xbbad4d09	-0.0052887243
118	0x3ca6bb74	0.020353056
119	0xbc19c9ef	-0.009386524
120	0x3b9e5afe	0.0048326245
121	0xbbc21b21	-0.005923644
122	0xbd127061	-0.035751704
123	0xbc3b5bfe	-0.011435507
124	0xbcf80d58	-0.0302798
125	0xbc942b96	-0.01808719
126	0xbc56818a	-0.013092408
127	0x3b934b1d	0.004495038
128	0xbd10eb0e	-0.035380416
129	0xbd03fa9d	-0.032221425
130	0xbcd33022	-0.025779787
131	0xbcf94b63	-0.030431455
132	0xbbd878e3	-0.0066062077
133	0x3c946f01	0.018119337
134	0x3c4cd8f6	0.012502899
135	0xbbe8a9ae	-0.0071003055
136	0x3bf3b939	0.0074378517
137	0xbbded408	-0.0068001784
138	0xbc692a7f	-0.014231323
139	0x3cf7e8f6	0.030262452
140	0x3cf85904	0.030315883
141	0x3ce7c02e	0.02828988
142	0x3c843124	0.016136713
143	0x3d11d52e	0.035603695
144	0xbd0d9e82	-0.034574993
145	0xbcb7cfde	-0.022437986
146	0xbc9d3743	-0.01919139
147	0x3b45ac36	0.003016246
148	0xbcfed488	-0.031107202
149	0xba9905e2	-0.0011674727
150	0x3c768eb7	0.015048674
151	0xbc35a3f2	-0.011086451
152	0xbc82d31f	-0.015969811
153	0xbc3a7724	-0.011380944
154	0xbc999816	-0.018749278
155	0x3a08df00	0.0005221218
156	0xbc83ec5c	-0.016103916
157	0x3c9107e0	0.01770395
158	0x3c05ed28	0.008174218
159	0xbc6fabb3	-0.014628339
160	0xbbd75c9e	-0.00657232
161	0xbbc4ab07	-0.0060018334
162	0xbcd59d83	-0.026076084
163	0xbc261f88	-0.010139354
164	0xba0c4cf6	-0.0005352044
165	0x3cc86143	0.02446044
166	0x3c21b98b	0.009870897
167	0xbc650c52	-0.013979988
168	0xbc978357	-0.018495245
169	0xbcfa4432	-0.030550096
170	0x3cec8319	0.028871106
171	0x3c73cf45	0.01488096
172	0x3ca74250	0.020417362
173	0x3cd3d1c3	0.025856858
174	0x3c178923	0.009249005
175	0xbc8470d0	-0.016167074
176	0x3b4eef4f	0.0031575745
177	0x3c45e623	0.012078795
178	0xbcc90f02	-0.02454329
179	0x3d060e65	0.03272857
180	0x3ce134d1	0.027491005
181	0xbbca7cf7	-0.0061794478
182	0x3c92fa64	0.017941661
183	0xbcd88eb5	-0.026435236
184	0xbcae4d62	-0.021277133
185	0x3ce4e00c	0.027938865
186	0x3a794a1a	0.0009509638
187	0xbbfe94bd	-0.007769196
188	0x3ab7812f	0.0014000292
189	0xbd141aaf	-0.03615826
190	0xbad7768a	-0.0016438526
191	0xbce852af	-0.02835974
192	0x3c83b3c0	0.016076922
193	0x3d03f245	0.032213468
194	0x3ca53c82	0.020170454
195	0x3c4f511f	0.012653618
196	0xbb16f27a	-0.002303271
197	0x3c9ae4ff	0.018908022
198	0x3ccbccf3	0.024878
199	0x3c9b61b0	0.01896748
200	0x3cc0c126	0.0235296
201	0xbc962543	-0.018328315
202	0xbc767c0e	-0.015044225
203	0x3c2ac020	0.010421783
204	0x3d0641a0	0.03277743
205	0xbbbabdaf	-0.0056988816
206	0x3b4454c0	0.0029957741
207	0xbccdcb39	-0.025121318
208	0x3c716ef2	0.014735924
209	0xbb1a1715	-0.0023512293
210	0xbc067b49	-0.008208104
211	0x3cfc1642	0.030772332
212	0xbcfb7003	-0.03069306
213	0xbcb8c7fb	-0.022556296
214	0xbce4a4c1	-0.027910592
215	0x3c8ba5d4	0.017046846
216	0x3cc5077f	0.024051426
217	0xb9148ecb	-0.00014167574
218	0x3cbc3d26	0.022978377
219	0xbc9a3cff	-0.018827913
220	0xbcf7f8bb	-0.030269971
221	0x3cca3058	0.024681255
222	0xbb67b437	-0.003535522
223	0xbd023a46	-0.031793855
224	0x3ad58d67	0.0016292752
225	0x3c470cb8	0.0121490285
226	0x3c7831f9	0.015148633
227	0xbc1613b5	-0.009159972
228	0x3ce48e86	0.027899992
229	0xbc2d30e8	-0.010570742
230	0x3c867408	0.01641275
231	0x3cd61576	0.02613328
232	0xbcca40d4	-0.024689116
233	0x3d0554f1	0.03255171
234	0xbcab1484	-0.020883806
235	0x3981a2bc	0.00024726044
236	0xbb4a45ab	-0.003086428
237	0x3c114596	0.008866688
238	0x3c86b908	0.016445652
239	0x3b7cd9d7	0.003858199
240	0xbc92010b	-0.017822763
241	0x3ce31b4c	0.027722977
242	0xbcc32f67	-0.023826314
243	0x3b5b1771	0.003343072
244	0x3c37e058	0.011222921
245	0x3c642e78	0.013927095
246	0x3cbd755f	0.023127256
247	0x3cc6c6c3	0.024264699
248	0xbcb79e12	-0.022414241
249	0xbc67b497	-0.014142177
250	0xbcb9294b	-0.022602698
251	0x3c16b847	0.009199209
252	0x3bd1606f	0.0063896696
253	0xbc8565d2	-0.016283903
254	0x3c98a1be	0.018631812
255	0x3cb1958d	0.021677757
